…
I1014 10:34:22.791925 27011 net.cpp:49] Initializing net from parameters: 
state {
  phase: TRAIN
}
layer {
  name: "data"
  type: "ImageData"
  top: "data"
  top: "label"
  include {
    phase: TRAIN
  }
  transform_param {
    mirror: true
    crop_size: 224
  }
  data_param {
    source: "/home/atlas3_ssd/simon/ilsvrc12/train_lmdb/"
    batch_size: 16
    backend: LMDB
  }
  image_data_param {
    source: "/home/atlas2_ssd/simon/ilsvrc12/train.txt"
    batch_size: 1
    shuffle: true
    root_folder: "/home/atlas1_ssd/simon/ilsvrc12-scaled/train/"
  }
}
layer {
  name: "data_bn"
  type: "BatchNorm"
  bottom: "data"
  top: "data_bn"
  param {
    lr_mult: 0
  }
  param {
    lr_mult: 0
  }
  param {
    lr_mult: 0
  }
}
layer {
  name: "data_scale"
  type: "Scale"
  bottom: "data_bn"
  top: "data_bn"
  param {
    lr_mult: 1
    decay_mult: 1
  }
  param {
    lr_mult: 2
    decay_mult: 1
  }
  scale_param {
    bias_term: true
  }
}
layer {
  name: "conv1"
  type: "Convolution"
  bottom: "data_bn"
  top: "conv1"
  param {
    lr_mult: 1
    decay_mult: 1
  }
  param {
    lr_mult: 2
    decay_mult: 1
  }
  convolution_param {
    num_output: 64
    pad: 3
    kernel_size: 7
    stride: 2
    weight_filler {
      type: "msra"
      variance_norm: FAN_OUT
    }
    bias_filler {
      type: "constant"
      value: 0
    }
  }
}
layer {
  name: "conv1_bn"
  type: "BatchNorm"
  bottom: "conv1"
  top: "conv1"
  param {
    lr_mult: 0
  }
  param {
    lr_mult: 0
  }
  param {
    lr_mult: 0
  }
}
layer {
  name: "conv1_scale"
  type: "Scale"
  bottom: "conv1"
  top: "conv1"
  param {
    lr_mult: 1
    decay_mult: 1
  }
  param {
    lr_mult: 2
    decay_mult: 1
  }
  scale_param {
    bias_term: true
  }
}
layer {
  name: "conv1_relu"
  type: "ReLU"
  bottom: "conv1"
  top: "conv1"
}
layer {
  name: "conv1_pool"
  type: "Pooling"
  bottom: "conv1"
  top: "conv1_pool"
  pooling_param {
    kernel_size: 3
    stride: 2
  }
}
layer {
  name: "layer_64_1_conv1"
  type: "Convolution"
  bottom: "conv1_pool"
  top: "layer_64_1_conv1"
  param {
    lr_mult: 1
    decay_mult: 1
  }
  convolution_param {
    num_output: 64
    bias_term: false
    pad: 0
    kernel_size: 1
    stride: 1
    weight_filler {
      type: "msra"
    }
    bias_filler {
      type: "constant"
      value: 0
    }
  }
}
layer {
  name: "layer_64_1_bn2"
  type: "BatchNorm"
  bottom: "layer_64_1_conv1"
  top: "layer_64_1_conv1"
  param {
    lr_mult: 0
  }
  param {
    lr_mult: 0
  }
  param {
    lr_mult: 0
  }
}
layer {
  name: "layer_64_1_scale2"
  type: "Scale"
  bottom: "layer_64_1_conv1"
  top: "layer_64_1_conv1"
  param {
    lr_mult: 1
    decay_mult: 1
  }
  param {
    lr_mult: 2
    decay_mult: 1
  }
  scale_param {
    bias_term: true
  }
}
layer {
  name: "layer_64_1_relu2"
  type: "ReLU"
  bottom: "layer_64_1_conv1"
  top: "layer_64_1_conv1"
}
layer {
  name: "layer_64_1_conv2"
  type: "Convolution"
  bottom: "layer_64_1_conv1"
  top: "layer_64_1_conv2"
  param {
    lr_mult: 1
    decay_mult: 1
  }
  convolution_param {
    num_output: 64
    bias_term: false
    pad: 1
    kernel_size: 3
    stride: 1
    weight_filler {
      type: "msra"
    }
    bias_filler {
      type: "constant"
      value: 0
    }
  }
}
layer {
  name: "layer_64_1_bn3"
  type: "BatchNorm"
  bottom: "layer_64_1_conv2"
  top: "layer_64_1_conv2"
  param {
    lr_mult: 0
  }
  param {
    lr_mult: 0
  }
  param {
    lr_mult: 0
  }
}
layer {
  name: "layer_64_1_scale3"
  type: "Scale"
  bottom: "layer_64_1_conv2"
  top: "layer_64_1_conv2"
  param {
    lr_mult: 1
    decay_mult: 1
  }
  param {
    lr_mult: 2
    decay_mult: 1
  }
  scale_param {
    bias_term: true
  }
}
layer {
  name: "layer_64_1_relu3"
  type: "ReLU"
  bottom: "layer_64_1_conv2"
  top: "layer_64_1_conv2"
}
layer {
  name: "layer_64_1_conv3"
  type: "Convolution"
  bottom: "layer_64_1_conv2"
  top: "layer_64_1_conv3"
  param {
    lr_mult: 1
    decay_mult: 1
  }
  convolution_param {
    num_output: 256
    bias_term: false
    pad: 0
    kernel_size: 1
    stride: 1
    weight_filler {
      type: "msra"
    }
    bias_filler {
      type: "constant"
      value: 0
    }
  }
}
layer {
  name: "layer_64_1_conv_expand"
  type: "Convolution"
  bottom: "layer_64_1_conv1"
  top: "layer_64_1_conv_expand"
  param {
    lr_mult: 1
    decay_mult: 1
  }
  convolution_param {
    num_output: 256
    bias_term: false
    pad: 0
    kernel_size: 1
    stride: 1
    weight_filler {
      type: "msra"
    }
    bias_filler {
      type: "constant"
      value: 0
    }
  }
}
layer {
  name: "layer_64_1_sum"
  type: "Eltwise"
  bottom: "layer_64_1_conv3"
  bottom: "layer_64_1_conv_expand"
  top: "layer_64_1_sum"
}
layer {
  name: "layer_64_2_bn1"
  type: "BatchNorm"
  bottom: "layer_64_1_sum"
  top: "layer_64_2_bn1"
  param {
    lr_mult: 0
  }
  param {
    lr_mult: 0
  }
  param {
    lr_mult: 0
  }
}
layer {
  name: "layer_64_2_scale1"
  type: "Scale"
  bottom: "layer_64_2_bn1"
  top: "layer_64_2_bn1"
  param {
    lr_mult: 1
    decay_mult: 1
  }
  param {
    lr_mult: 2
    decay_mult: 1
  }
  scale_param {
    bias_term: true
  }
}
layer {
  name: "layer_64_2_relu1"
  type: "ReLU"
  bottom: "layer_64_2_bn1"
  top: "layer_64_2_bn1"
}
layer {
  name: "layer_64_2_conv1"
  type: "Convolution"
  bottom: "layer_64_2_bn1"
  top: "layer_64_2_conv1"
  param {
    lr_mult: 1
    decay_mult: 1
  }
  convolution_param {
    num_output: 64
    bias_term: false
    pad: 0
    kernel_size: 1
    stride: 1
    weight_filler {
      type: "msra"
    }
    bias_filler {
      type: "constant"
      value: 0
    }
  }
}
layer {
  name: "layer_64_2_bn2"
  type: "BatchNorm"
  bottom: "layer_64_2_conv1"
  top: "layer_64_2_conv1"
  param {
    lr_mult: 0
  }
  param {
    lr_mult: 0
  }
  param {
    lr_mult: 0
  }
}
layer {
  name: "layer_64_2_scale2"
  type: "Scale"
  bottom: "layer_64_2_conv1"
  top: "layer_64_2_conv1"
  param {
    lr_mult: 1
    decay_mult: 1
  }
  param {
    lr_mult: 2
    decay_mult: 1
  }
  scale_param {
    bias_term: true
  }
}
layer {
  name: "layer_64_2_relu2"
  type: "ReLU"
  bottom: "layer_64_2_conv1"
  top: "layer_64_2_conv1"
}
layer {
  name: "layer_64_2_conv2"
  type: "Convolution"
  bottom: "layer_64_2_conv1"
  top: "layer_64_2_conv2"
  param {
    lr_mult: 1
    decay_mult: 1
  }
  convolution_param {
    num_output: 64
    bias_term: false
    pad: 1
    kernel_size: 3
    stride: 1
    weight_filler {
      type: "msra"
    }
    bias_filler {
      type: "constant"
      value: 0
    }
  }
}
layer {
  name: "layer_64_2_bn3"
  type: "BatchNorm"
  bottom: "layer_64_2_conv2"
  top: "layer_64_2_conv2"
  param {
    lr_mult: 0
  }
  param {
    lr_mult: 0
  }
  param {
    lr_mult: 0
  }
}
layer {
  name: "layer_64_2_scale3"
  type: "Scale"
  bottom: "layer_64_2_conv2"
  top: "layer_64_2_conv2"
  param {
    lr_mult: 1
    decay_mult: 1
  }
  param {
    lr_mult: 2
    decay_mult: 1
  }
  scale_param {
    bias_term: true
  }
}
layer {
  name: "layer_64_2_relu3"
  type: "ReLU"
  bottom: "layer_64_2_conv2"
  top: "layer_64_2_conv2"
}
layer {
  name: "layer_64_2_conv3"
  type: "Convolution"
  bottom: "layer_64_2_conv2"
  top: "layer_64_2_conv3"
  param {
    lr_mult: 1
    decay_mult: 1
  }
  convolution_param {
    num_output: 256
    bias_term: false
    pad: 0
    kernel_size: 1
    stride: 1
    weight_filler {
      type: "msra"
    }
    bias_filler {
      type: "constant"
      value: 0
    }
  }
}
layer {
  name: "layer_64_2_sum"
  type: "Eltwise"
  bottom: "layer_64_2_conv3"
  bottom: "layer_64_1_sum"
  top: "layer_64_2_sum"
}
layer {
  name: "layer_64_3_bn1"
  type: "BatchNorm"
  bottom: "layer_64_2_sum"
  top: "layer_64_3_bn1"
  param {
    lr_mult: 0
  }
  param {
    lr_mult: 0
  }
  param {
    lr_mult: 0
  }
}
layer {
  name: "layer_64_3_scale1"
  type: "Scale"
  bottom: "layer_64_3_bn1"
  top: "layer_64_3_bn1"
  param {
    lr_mult: 1
    decay_mult: 1
  }
  param {
    lr_mult: 2
    decay_mult: 1
  }
  scale_param {
    bias_term: true
  }
}
layer {
  name: "layer_64_3_relu1"
  type: "ReLU"
  bottom: "layer_64_3_bn1"
  top: "layer_64_3_bn1"
}
layer {
  name: "layer_64_3_conv1"
  type: "Convolution"
  bottom: "layer_64_3_bn1"
  top: "layer_64_3_conv1"
  param {
    lr_mult: 1
    decay_mult: 1
  }
  convolution_param {
    num_output: 64
    bias_term: false
    pad: 0
    kernel_size: 1
    stride: 1
    weight_filler {
      type: "msra"
    }
    bias_filler {
      type: "constant"
      value: 0
    }
  }
}
layer {
  name: "layer_64_3_bn2"
  type: "BatchNorm"
  bottom: "layer_64_3_conv1"
  top: "layer_64_3_conv1"
  param {
    lr_mult: 0
  }
  param {
    lr_mult: 0
  }
  param {
    lr_mult: 0
  }
}
layer {
  name: "layer_64_3_scale2"
  type: "Scale"
  bottom: "layer_64_3_conv1"
  top: "layer_64_3_conv1"
  param {
    lr_mult: 1
    decay_mult: 1
  }
  param {
    lr_mult: 2
    decay_mult: 1
  }
  scale_param {
    bias_term: true
  }
}
layer {
  name: "layer_64_3_relu2"
  type: "ReLU"
  bottom: "layer_64_3_conv1"
  top: "layer_64_3_conv1"
}
layer {
  name: "layer_64_3_conv2"
  type: "Convolution"
  bottom: "layer_64_3_conv1"
  top: "layer_64_3_conv2"
  param {
    lr_mult: 1
    decay_mult: 1
  }
  convolution_param {
    num_output: 64
    bias_term: false
    pad: 1
    kernel_size: 3
    stride: 1
    weight_filler {
      type: "msra"
    }
    bias_filler {
      type: "constant"
      value: 0
    }
  }
}
layer {
  name: "layer_64_3_bn3"
  type: "BatchNorm"
  bottom: "layer_64_3_conv2"
  top: "layer_64_3_conv2"
  param {
    lr_mult: 0
  }
  param {
    lr_mult: 0
  }
  param {
    lr_mult: 0
  }
}
layer {
  name: "layer_64_3_scale3"
  type: "Scale"
  bottom: "layer_64_3_conv2"
  top: "layer_64_3_conv2"
  param {
    lr_mult: 1
    decay_mult: 1
  }
  param {
    lr_mult: 2
    decay_mult: 1
  }
  scale_param {
    bias_term: true
  }
}
layer {
  name: "layer_64_3_relu3"
  type: "ReLU"
  bottom: "layer_64_3_conv2"
  top: "layer_64_3_conv2"
}
layer {
  name: "layer_64_3_conv3"
  type: "Convolution"
  bottom: "layer_64_3_conv2"
  top: "layer_64_3_conv3"
  param {
    lr_mult: 1
    decay_mult: 1
  }
  convolution_param {
    num_output: 256
    bias_term: false
    pad: 0
    kernel_size: 1
    stride: 1
    weight_filler {
      type: "msra"
    }
    bias_filler {
      type: "constant"
      value: 0
    }
  }
}
layer {
  name: "layer_64_3_sum"
  type: "Eltwise"
  bottom: "layer_64_3_conv3"
  bottom: "layer_64_2_sum"
  top: "layer_64_3_sum"
}
layer {
  name: "layer_128_1_bn1"
  type: "BatchNorm"
  bottom: "layer_64_3_sum"
  top: "layer_128_1_bn1"
  param {
    lr_mult: 0
  }
  param {
    lr_mult: 0
  }
  param {
    lr_mult: 0
  }
}
layer {
  name: "layer_128_1_scale1"
  type: "Scale"
  bottom: "layer_128_1_bn1"
  top: "layer_128_1_bn1"
  param {
    lr_mult: 1
    decay_mult: 1
  }
  param {
    lr_mult: 2
    decay_mult: 1
  }
  scale_param {
    bias_term: true
  }
}
layer {
  name: "layer_128_1_relu1"
  type: "ReLU"
  bottom: "layer_128_1_bn1"
  top: "layer_128_1_bn1"
}
layer {
  name: "layer_128_1_conv1"
  type: "Convolution"
  bottom: "layer_128_1_bn1"
  top: "layer_128_1_conv1"
  param {
    lr_mult: 1
    decay_mult: 1
  }
  convolution_param {
    num_output: 128
    bias_term: false
    pad: 0
    kernel_size: 1
    stride: 1
    weight_filler {
      type: "msra"
    }
    bias_filler {
      type: "constant"
      value: 0
    }
  }
}
layer {
  name: "layer_128_1_bn2"
  type: "BatchNorm"
  bottom: "layer_128_1_conv1"
  top: "layer_128_1_conv1"
  param {
    lr_mult: 0
  }
  param {
    lr_mult: 0
  }
  param {
    lr_mult: 0
  }
}
layer {
  name: "layer_128_1_scale2"
  type: "Scale"
  bottom: "layer_128_1_conv1"
  top: "layer_128_1_conv1"
  param {
    lr_mult: 1
    decay_mult: 1
  }
  param {
    lr_mult: 2
    decay_mult: 1
  }
  scale_param {
    bias_term: true
  }
}
layer {
  name: "layer_128_1_relu2"
  type: "ReLU"
  bottom: "layer_128_1_conv1"
  top: "layer_128_1_conv1"
}
layer {
  name: "layer_128_1_conv2"
  type: "Convolution"
  bottom: "layer_128_1_conv1"
  top: "layer_128_1_conv2"
  param {
    lr_mult: 1
    decay_mult: 1
  }
  convolution_param {
    num_output: 128
    bias_term: false
    pad: 1
    kernel_size: 3
    stride: 2
    weight_filler {
      type: "msra"
    }
    bias_filler {
      type: "constant"
      value: 0
    }
  }
}
layer {
  name: "layer_128_1_bn3"
  type: "BatchNorm"
  bottom: "layer_128_1_conv2"
  top: "layer_128_1_conv2"
  param {
    lr_mult: 0
  }
  param {
    lr_mult: 0
  }
  param {
    lr_mult: 0
  }
}
layer {
  name: "layer_128_1_scale3"
  type: "Scale"
  bottom: "layer_128_1_conv2"
  top: "layer_128_1_conv2"
  param {
    lr_mult: 1
    decay_mult: 1
  }
  param {
    lr_mult: 2
    decay_mult: 1
  }
  scale_param {
    bias_term: true
  }
}
layer {
  name: "layer_128_1_relu3"
  type: "ReLU"
  bottom: "layer_128_1_conv2"
  top: "layer_128_1_conv2"
}
layer {
  name: "layer_128_1_conv3"
  type: "Convolution"
  bottom: "layer_128_1_conv2"
  top: "layer_128_1_conv3"
  param {
    lr_mult: 1
    decay_mult: 1
  }
  convolution_param {
    num_output: 512
    bias_term: false
    pad: 0
    kernel_size: 1
    stride: 1
    weight_filler {
      type: "msra"
    }
    bias_filler {
      type: "constant"
      value: 0
    }
  }
}
layer {
  name: "layer_128_1_conv_expand"
  type: "Convolution"
  bottom: "layer_128_1_bn1"
  top: "layer_128_1_conv_expand"
  param {
    lr_mult: 1
    decay_mult: 1
  }
  convolution_param {
    num_output: 512
    bias_term: false
    pad: 0
    kernel_size: 1
    stride: 2
    weight_filler {
      type: "msra"
    }
    bias_filler {
      type: "constant"
      value: 0
    }
  }
}
layer {
  name: "layer_128_1_sum"
  type: "Eltwise"
  bottom: "layer_128_1_conv3"
  bottom: "layer_128_1_conv_expand"
  top: "layer_128_1_sum"
}
layer {
  name: "layer_128_2_bn1"
  type: "BatchNorm"
  bottom: "layer_128_1_sum"
  top: "layer_128_2_bn1"
  param {
    lr_mult: 0
  }
  param {
    lr_mult: 0
  }
  param {
    lr_mult: 0
  }
}
layer {
  name: "layer_128_2_scale1"
  type: "Scale"
  bottom: "layer_128_2_bn1"
  top: "layer_128_2_bn1"
  param {
    lr_mult: 1
    decay_mult: 1
  }
  param {
    lr_mult: 2
    decay_mult: 1
  }
  scale_param {
    bias_term: true
  }
}
layer {
  name: "layer_128_2_relu1"
  type: "ReLU"
  bottom: "layer_128_2_bn1"
  top: "layer_128_2_bn1"
}
layer {
  name: "layer_128_2_conv1"
  type: "Convolution"
  bottom: "layer_128_2_bn1"
  top: "layer_128_2_conv1"
  param {
    lr_mult: 1
    decay_mult: 1
  }
  convolution_param {
    num_output: 128
    bias_term: false
    pad: 0
    kernel_size: 1
    stride: 1
    weight_filler {
      type: "msra"
    }
    bias_filler {
      type: "constant"
      value: 0
    }
  }
}
layer {
  name: "layer_128_2_bn2"
  type: "BatchNorm"
  bottom: "layer_128_2_conv1"
  top: "layer_128_2_conv1"
  param {
    lr_mult: 0
  }
  param {
    lr_mult: 0
  }
  param {
    lr_mult: 0
  }
}
layer {
  name: "layer_128_2_scale2"
  type: "Scale"
  bottom: "layer_128_2_conv1"
  top: "layer_128_2_conv1"
  param {
    lr_mult: 1
    decay_mult: 1
  }
  param {
    lr_mult: 2
    decay_mult: 1
  }
  scale_param {
    bias_term: true
  }
}
layer {
  name: "layer_128_2_relu2"
  type: "ReLU"
  bottom: "layer_128_2_conv1"
  top: "layer_128_2_conv1"
}
layer {
  name: "layer_128_2_conv2"
  type: "Convolution"
  bottom: "layer_128_2_conv1"
  top: "layer_128_2_conv2"
  param {
    lr_mult: 1
    decay_mult: 1
  }
  convolution_param {
    num_output: 128
    bias_term: false
    pad: 1
    kernel_size: 3
    stride: 1
    weight_filler {
      type: "msra"
    }
    bias_filler {
      type: "constant"
      value: 0
    }
  }
}
layer {
  name: "layer_128_2_bn3"
  type: "BatchNorm"
  bottom: "layer_128_2_conv2"
  top: "layer_128_2_conv2"
  param {
    lr_mult: 0
  }
  param {
    lr_mult: 0
  }
  param {
    lr_mult: 0
  }
}
layer {
  name: "layer_128_2_scale3"
  type: "Scale"
  bottom: "layer_128_2_conv2"
  top: "layer_128_2_conv2"
  param {
    lr_mult: 1
    decay_mult: 1
  }
  param {
    lr_mult: 2
    decay_mult: 1
  }
  scale_param {
    bias_term: true
  }
}
layer {
  name: "layer_128_2_relu3"
  type: "ReLU"
  bottom: "layer_128_2_conv2"
  top: "layer_128_2_conv2"
}
layer {
  name: "layer_128_2_conv3"
  type: "Convolution"
  bottom: "layer_128_2_conv2"
  top: "layer_128_2_conv3"
  param {
    lr_mult: 1
    decay_mult: 1
  }
  convolution_param {
    num_output: 512
    bias_term: false
    pad: 0
    kernel_size: 1
    stride: 1
    weight_filler {
      type: "msra"
    }
    bias_filler {
      type: "constant"
      value: 0
    }
  }
}
layer {
  name: "layer_128_2_sum"
  type: "Eltwise"
  bottom: "layer_128_2_conv3"
  bottom: "layer_128_1_sum"
  top: "layer_128_2_sum"
}
layer {
  name: "layer_128_3_bn1"
  type: "BatchNorm"
  bottom: "layer_128_2_sum"
  top: "layer_128_3_bn1"
  param {
    lr_mult: 0
  }
  param {
    lr_mult: 0
  }
  param {
    lr_mult: 0
  }
}
layer {
  name: "layer_128_3_scale1"
  type: "Scale"
  bottom: "layer_128_3_bn1"
  top: "layer_128_3_bn1"
  param {
    lr_mult: 1
    decay_mult: 1
  }
  param {
    lr_mult: 2
    decay_mult: 1
  }
  scale_param {
    bias_term: true
  }
}
layer {
  name: "layer_128_3_relu1"
  type: "ReLU"
  bottom: "layer_128_3_bn1"
  top: "layer_128_3_bn1"
}
layer {
  name: "layer_128_3_conv1"
  type: "Convolution"
  bottom: "layer_128_3_bn1"
  top: "layer_128_3_conv1"
  param {
    lr_mult: 1
    decay_mult: 1
  }
  convolution_param {
    num_output: 128
    bias_term: false
    pad: 0
    kernel_size: 1
    stride: 1
    weight_filler {
      type: "msra"
    }
    bias_filler {
      type: "constant"
      value: 0
    }
  }
}
layer {
  name: "layer_128_3_bn2"
  type: "BatchNorm"
  bottom: "layer_128_3_conv1"
  top: "layer_128_3_conv1"
  param {
    lr_mult: 0
  }
  param {
    lr_mult: 0
  }
  param {
    lr_mult: 0
  }
}
layer {
  name: "layer_128_3_scale2"
  type: "Scale"
  bottom: "layer_128_3_conv1"
  top: "layer_128_3_conv1"
  param {
    lr_mult: 1
    decay_mult: 1
  }
  param {
    lr_mult: 2
    decay_mult: 1
  }
  scale_param {
    bias_term: true
  }
}
layer {
  name: "layer_128_3_relu2"
  type: "ReLU"
  bottom: "layer_128_3_conv1"
  top: "layer_128_3_conv1"
}
layer {
  name: "layer_128_3_conv2"
  type: "Convolution"
  bottom: "layer_128_3_conv1"
  top: "layer_128_3_conv2"
  param {
    lr_mult: 1
    decay_mult: 1
  }
  convolution_param {
    num_output: 128
    bias_term: false
    pad: 1
    kernel_size: 3
    stride: 1
    weight_filler {
      type: "msra"
    }
    bias_filler {
      type: "constant"
      value: 0
    }
  }
}
layer {
  name: "layer_128_3_bn3"
  type: "BatchNorm"
  bottom: "layer_128_3_conv2"
  top: "layer_128_3_conv2"
  param {
    lr_mult: 0
  }
  param {
    lr_mult: 0
  }
  param {
    lr_mult: 0
  }
}
layer {
  name: "layer_128_3_scale3"
  type: "Scale"
  bottom: "layer_128_3_conv2"
  top: "layer_128_3_conv2"
  param {
    lr_mult: 1
    decay_mult: 1
  }
  param {
    lr_mult: 2
    decay_mult: 1
  }
  scale_param {
    bias_term: true
  }
}
layer {
  name: "layer_128_3_relu3"
  type: "ReLU"
  bottom: "layer_128_3_conv2"
  top: "layer_128_3_conv2"
}
layer {
  name: "layer_128_3_conv3"
  type: "Convolution"
  bottom: "layer_128_3_conv2"
  top: "layer_128_3_conv3"
  param {
    lr_mult: 1
    decay_mult: 1
  }
  convolution_param {
    num_output: 512
    bias_term: false
    pad: 0
    kernel_size: 1
    stride: 1
    weight_filler {
      type: "msra"
    }
    bias_filler {
      type: "constant"
      value: 0
    }
  }
}
layer {
  name: "layer_128_3_sum"
  type: "Eltwise"
  bottom: "layer_128_3_conv3"
  bottom: "layer_128_2_sum"
  top: "layer_128_3_sum"
}
layer {
  name: "layer_128_4_bn1"
  type: "BatchNorm"
  bottom: "layer_128_3_sum"
  top: "layer_128_4_bn1"
  param {
    lr_mult: 0
  }
  param {
    lr_mult: 0
  }
  param {
    lr_mult: 0
  }
}
layer {
  name: "layer_128_4_scale1"
  type: "Scale"
  bottom: "layer_128_4_bn1"
  top: "layer_128_4_bn1"
  param {
    lr_mult: 1
    decay_mult: 1
  }
  param {
    lr_mult: 2
    decay_mult: 1
  }
  scale_param {
    bias_term: true
  }
}
layer {
  name: "layer_128_4_relu1"
  type: "ReLU"
  bottom: "layer_128_4_bn1"
  top: "layer_128_4_bn1"
}
layer {
  name: "layer_128_4_conv1"
  type: "Convolution"
  bottom: "layer_128_4_bn1"
  top: "layer_128_4_conv1"
  param {
    lr_mult: 1
    decay_mult: 1
  }
  convolution_param {
    num_output: 128
    bias_term: false
    pad: 0
    kernel_size: 1
    stride: 1
    weight_filler {
      type: "msra"
    }
    bias_filler {
      type: "constant"
      value: 0
    }
  }
}
layer {
  name: "layer_128_4_bn2"
  type: "BatchNorm"
  bottom: "layer_128_4_conv1"
  top: "layer_128_4_conv1"
  param {
    lr_mult: 0
  }
  param {
    lr_mult: 0
  }
  param {
    lr_mult: 0
  }
}
layer {
  name: "layer_128_4_scale2"
  type: "Scale"
  bottom: "layer_128_4_conv1"
  top: "layer_128_4_conv1"
  param {
    lr_mult: 1
    decay_mult: 1
  }
  param {
    lr_mult: 2
    decay_mult: 1
  }
  scale_param {
    bias_term: true
  }
}
layer {
  name: "layer_128_4_relu2"
  type: "ReLU"
  bottom: "layer_128_4_conv1"
  top: "layer_128_4_conv1"
}
layer {
  name: "layer_128_4_conv2"
  type: "Convolution"
  bottom: "layer_128_4_conv1"
  top: "layer_128_4_conv2"
  param {
    lr_mult: 1
    decay_mult: 1
  }
  convolution_param {
    num_output: 128
    bias_term: false
    pad: 1
    kernel_size: 3
    stride: 1
    weight_filler {
      type: "msra"
    }
    bias_filler {
      type: "constant"
      value: 0
    }
  }
}
layer {
  name: "layer_128_4_bn3"
  type: "BatchNorm"
  bottom: "layer_128_4_conv2"
  top: "layer_128_4_conv2"
  param {
    lr_mult: 0
  }
  param {
    lr_mult: 0
  }
  param {
    lr_mult: 0
  }
}
layer {
  name: "layer_128_4_scale3"
  type: "Scale"
  bottom: "layer_128_4_conv2"
  top: "layer_128_4_conv2"
  param {
    lr_mult: 1
    decay_mult: 1
  }
  param {
    lr_mult: 2
    decay_mult: 1
  }
  scale_param {
    bias_term: true
  }
}
layer {
  name: "layer_128_4_relu3"
  type: "ReLU"
  bottom: "layer_128_4_conv2"
  top: "layer_128_4_conv2"
}
layer {
  name: "layer_128_4_conv3"
  type: "Convolution"
  bottom: "layer_128_4_conv2"
  top: "layer_128_4_conv3"
  param {
    lr_mult: 1
    decay_mult: 1
  }
  convolution_param {
    num_output: 512
    bias_term: false
    pad: 0
    kernel_size: 1
    stride: 1
    weight_filler {
      type: "msra"
    }
    bias_filler {
      type: "constant"
      value: 0
    }
  }
}
layer {
  name: "layer_128_4_sum"
  type: "Eltwise"
  bottom: "layer_128_4_conv3"
  bottom: "layer_128_3_sum"
  top: "layer_128_4_sum"
}
layer {
  name: "layer_256_1_bn1"
  type: "BatchNorm"
  bottom: "layer_128_4_sum"
  top: "layer_256_1_bn1"
  param {
    lr_mult: 0
  }
  param {
    lr_mult: 0
  }
  param {
    lr_mult: 0
  }
}
layer {
  name: "layer_256_1_scale1"
  type: "Scale"
  bottom: "layer_256_1_bn1"
  top: "layer_256_1_bn1"
  param {
    lr_mult: 1
    decay_mult: 1
  }
  param {
    lr_mult: 2
    decay_mult: 1
  }
  scale_param {
    bias_term: true
  }
}
layer {
  name: "layer_256_1_relu1"
  type: "ReLU"
  bottom: "layer_256_1_bn1"
  top: "layer_256_1_bn1"
}
layer {
  name: "layer_256_1_conv1"
  type: "Convolution"
  bottom: "layer_256_1_bn1"
  top: "layer_256_1_conv1"
  param {
    lr_mult: 1
    decay_mult: 1
  }
  convolution_param {
    num_output: 256
    bias_term: false
    pad: 0
    kernel_size: 1
    stride: 1
    weight_filler {
      type: "msra"
    }
    bias_filler {
      type: "constant"
      value: 0
    }
  }
}
layer {
  name: "layer_256_1_bn2"
  type: "BatchNorm"
  bottom: "layer_256_1_conv1"
  top: "layer_256_1_conv1"
  param {
    lr_mult: 0
  }
  param {
    lr_mult: 0
  }
  param {
    lr_mult: 0
  }
}
layer {
  name: "layer_256_1_scale2"
  type: "Scale"
  bottom: "layer_256_1_conv1"
  top: "layer_256_1_conv1"
  param {
    lr_mult: 1
    decay_mult: 1
  }
  param {
    lr_mult: 2
    decay_mult: 1
  }
  scale_param {
    bias_term: true
  }
}
layer {
  name: "layer_256_1_relu2"
  type: "ReLU"
  bottom: "layer_256_1_conv1"
  top: "layer_256_1_conv1"
}
layer {
  name: "layer_256_1_conv2"
  type: "Convolution"
  bottom: "layer_256_1_conv1"
  top: "layer_256_1_conv2"
  param {
    lr_mult: 1
    decay_mult: 1
  }
  convolution_param {
    num_output: 256
    bias_term: false
    pad: 1
    kernel_size: 3
    stride: 2
    weight_filler {
      type: "msra"
    }
    bias_filler {
      type: "constant"
      value: 0
    }
  }
}
layer {
  name: "layer_256_1_bn3"
  type: "BatchNorm"
  bottom: "layer_256_1_conv2"
  top: "layer_256_1_conv2"
  param {
    lr_mult: 0
  }
  param {
    lr_mult: 0
  }
  param {
    lr_mult: 0
  }
}
layer {
  name: "layer_256_1_scale3"
  type: "Scale"
  bottom: "layer_256_1_conv2"
  top: "layer_256_1_conv2"
  param {
    lr_mult: 1
    decay_mult: 1
  }
  param {
    lr_mult: 2
    decay_mult: 1
  }
  scale_param {
    bias_term: true
  }
}
layer {
  name: "layer_256_1_relu3"
  type: "ReLU"
  bottom: "layer_256_1_conv2"
  top: "layer_256_1_conv2"
}
layer {
  name: "layer_256_1_conv3"
  type: "Convolution"
  bottom: "layer_256_1_conv2"
  top: "layer_256_1_conv3"
  param {
    lr_mult: 1
    decay_mult: 1
  }
  convolution_param {
    num_output: 1024
    bias_term: false
    pad: 0
    kernel_size: 1
    stride: 1
    weight_filler {
      type: "msra"
    }
    bias_filler {
      type: "constant"
      value: 0
    }
  }
}
layer {
  name: "layer_256_1_conv_expand"
  type: "Convolution"
  bottom: "layer_256_1_bn1"
  top: "layer_256_1_conv_expand"
  param {
    lr_mult: 1
    decay_mult: 1
  }
  convolution_param {
    num_output: 1024
    bias_term: false
    pad: 0
    kernel_size: 1
    stride: 2
    weight_filler {
      type: "msra"
    }
    bias_filler {
      type: "constant"
      value: 0
    }
  }
}
layer {
  name: "layer_256_1_sum"
  type: "Eltwise"
  bottom: "layer_256_1_conv3"
  bottom: "layer_256_1_conv_expand"
  top: "layer_256_1_sum"
}
layer {
  name: "layer_256_2_bn1"
  type: "BatchNorm"
  bottom: "layer_256_1_sum"
  top: "layer_256_2_bn1"
  param {
    lr_mult: 0
  }
  param {
    lr_mult: 0
  }
  param {
    lr_mult: 0
  }
}
layer {
  name: "layer_256_2_scale1"
  type: "Scale"
  bottom: "layer_256_2_bn1"
  top: "layer_256_2_bn1"
  param {
    lr_mult: 1
    decay_mult: 1
  }
  param {
    lr_mult: 2
    decay_mult: 1
  }
  scale_param {
    bias_term: true
  }
}
layer {
  name: "layer_256_2_relu1"
  type: "ReLU"
  bottom: "layer_256_2_bn1"
  top: "layer_256_2_bn1"
}
layer {
  name: "layer_256_2_conv1"
  type: "Convolution"
  bottom: "layer_256_2_bn1"
  top: "layer_256_2_conv1"
  param {
    lr_mult: 1
    decay_mult: 1
  }
  convolution_param {
    num_output: 256
    bias_term: false
    pad: 0
    kernel_size: 1
    stride: 1
    weight_filler {
      type: "msra"
    }
    bias_filler {
      type: "constant"
      value: 0
    }
  }
}
layer {
  name: "layer_256_2_bn2"
  type: "BatchNorm"
  bottom: "layer_256_2_conv1"
  top: "layer_256_2_conv1"
  param {
    lr_mult: 0
  }
  param {
    lr_mult: 0
  }
  param {
    lr_mult: 0
  }
}
layer {
  name: "layer_256_2_scale2"
  type: "Scale"
  bottom: "layer_256_2_conv1"
  top: "layer_256_2_conv1"
  param {
    lr_mult: 1
    decay_mult: 1
  }
  param {
    lr_mult: 2
    decay_mult: 1
  }
  scale_param {
    bias_term: true
  }
}
layer {
  name: "layer_256_2_relu2"
  type: "ReLU"
  bottom: "layer_256_2_conv1"
  top: "layer_256_2_conv1"
}
layer {
  name: "layer_256_2_conv2"
  type: "Convolution"
  bottom: "layer_256_2_conv1"
  top: "layer_256_2_conv2"
  param {
    lr_mult: 1
    decay_mult: 1
  }
  convolution_param {
    num_output: 256
    bias_term: false
    pad: 1
    kernel_size: 3
    stride: 1
    weight_filler {
      type: "msra"
    }
    bias_filler {
      type: "constant"
      value: 0
    }
  }
}
layer {
  name: "layer_256_2_bn3"
  type: "BatchNorm"
  bottom: "layer_256_2_conv2"
  top: "layer_256_2_conv2"
  param {
    lr_mult: 0
  }
  param {
    lr_mult: 0
  }
  param {
    lr_mult: 0
  }
}
layer {
  name: "layer_256_2_scale3"
  type: "Scale"
  bottom: "layer_256_2_conv2"
  top: "layer_256_2_conv2"
  param {
    lr_mult: 1
    decay_mult: 1
  }
  param {
    lr_mult: 2
    decay_mult: 1
  }
  scale_param {
    bias_term: true
  }
}
layer {
  name: "layer_256_2_relu3"
  type: "ReLU"
  bottom: "layer_256_2_conv2"
  top: "layer_256_2_conv2"
}
layer {
  name: "layer_256_2_conv3"
  type: "Convolution"
  bottom: "layer_256_2_conv2"
  top: "layer_256_2_conv3"
  param {
    lr_mult: 1
    decay_mult: 1
  }
  convolution_param {
    num_output: 1024
    bias_term: false
    pad: 0
    kernel_size: 1
    stride: 1
    weight_filler {
      type: "msra"
    }
    bias_filler {
      type: "constant"
      value: 0
    }
  }
}
layer {
  name: "layer_256_2_sum"
  type: "Eltwise"
  bottom: "layer_256_2_conv3"
  bottom: "layer_256_1_sum"
  top: "layer_256_2_sum"
}
layer {
  name: "layer_256_3_bn1"
  type: "BatchNorm"
  bottom: "layer_256_2_sum"
  top: "layer_256_3_bn1"
  param {
    lr_mult: 0
  }
  param {
    lr_mult: 0
  }
  param {
    lr_mult: 0
  }
}
layer {
  name: "layer_256_3_scale1"
  type: "Scale"
  bottom: "layer_256_3_bn1"
  top: "layer_256_3_bn1"
  param {
    lr_mult: 1
    decay_mult: 1
  }
  param {
    lr_mult: 2
    decay_mult: 1
  }
  scale_param {
    bias_term: true
  }
}
layer {
  name: "layer_256_3_relu1"
  type: "ReLU"
  bottom: "layer_256_3_bn1"
  top: "layer_256_3_bn1"
}
layer {
  name: "layer_256_3_conv1"
  type: "Convolution"
  bottom: "layer_256_3_bn1"
  top: "layer_256_3_conv1"
  param {
    lr_mult: 1
    decay_mult: 1
  }
  convolution_param {
    num_output: 256
    bias_term: false
    pad: 0
    kernel_size: 1
    stride: 1
    weight_filler {
      type: "msra"
    }
    bias_filler {
      type: "constant"
      value: 0
    }
  }
}
layer {
  name: "layer_256_3_bn2"
  type: "BatchNorm"
  bottom: "layer_256_3_conv1"
  top: "layer_256_3_conv1"
  param {
    lr_mult: 0
  }
  param 
I1014 10:34:22.792637 27011 layer_factory.hpp:77] Creating layer data
I1014 10:34:22.792670 27011 net.cpp:91] Creating Layer data
I1014 10:34:22.792675 27011 net.cpp:399] data -> data
I1014 10:34:22.792701 27011 net.cpp:399] data -> label
I1014 10:34:22.792723 27011 image_data_layer.cpp:40] Opening file /home/atlas2_ssd/simon/ilsvrc12/train.txt
I1014 10:34:23.035238 27011 image_data_layer.cpp:53] Shuffling data
I1014 10:34:23.249495 27011 image_data_layer.cpp:58] A total of 1281167 images.
I1014 10:34:23.257861 27011 image_data_layer.cpp:89] output data size: 1,3,224,224
I1014 10:34:23.259809 27011 net.cpp:141] Setting up data
I1014 10:34:23.259829 27011 net.cpp:148] Top shape: 1 3 224 224 (150528)
I1014 10:34:23.259831 27011 net.cpp:148] Top shape: 1 (1)
I1014 10:34:23.259835 27011 net.cpp:156] Memory required for data: 602116
I1014 10:34:23.259840 27011 layer_factory.hpp:77] Creating layer data_bn
I1014 10:34:23.259860 27011 net.cpp:91] Creating Layer data_bn
I1014 10:34:23.259865 27011 net.cpp:425] data_bn <- data
I1014 10:34:23.259873 27011 net.cpp:399] data_bn -> data_bn
I1014 10:34:23.260296 27011 net.cpp:141] Setting up data_bn
I1014 10:34:23.260303 27011 net.cpp:148] Top shape: 1 3 224 224 (150528)
I1014 10:34:23.260306 27011 net.cpp:156] Memory required for data: 1204228
I1014 10:34:23.260318 27011 layer_factory.hpp:77] Creating layer data_scale
I1014 10:34:23.260327 27011 net.cpp:91] Creating Layer data_scale
I1014 10:34:23.260330 27011 net.cpp:425] data_scale <- data_bn
I1014 10:34:23.260334 27011 net.cpp:386] data_scale -> data_bn (in-place)
I1014 10:34:23.260363 27011 layer_factory.hpp:77] Creating layer data_scale
I1014 10:34:23.260466 27011 net.cpp:141] Setting up data_scale
I1014 10:34:23.260470 27011 net.cpp:148] Top shape: 1 3 224 224 (150528)
I1014 10:34:23.260473 27011 net.cpp:156] Memory required for data: 1806340
I1014 10:34:23.260480 27011 layer_factory.hpp:77] Creating layer conv1
I1014 10:34:23.260504 27011 net.cpp:91] Creating Layer conv1
I1014 10:34:23.260506 27011 net.cpp:425] conv1 <- data_bn
I1014 10:34:23.260510 27011 net.cpp:399] conv1 -> conv1
I1014 10:34:23.261014 27011 net.cpp:141] Setting up conv1
I1014 10:34:23.261021 27011 net.cpp:148] Top shape: 1 64 112 112 (802816)
I1014 10:34:23.261024 27011 net.cpp:156] Memory required for data: 5017604
I1014 10:34:23.261029 27011 layer_factory.hpp:77] Creating layer conv1_bn
I1014 10:34:23.261034 27011 net.cpp:91] Creating Layer conv1_bn
I1014 10:34:23.261036 27011 net.cpp:425] conv1_bn <- conv1
I1014 10:34:23.261040 27011 net.cpp:386] conv1_bn -> conv1 (in-place)
I1014 10:34:23.261142 27011 net.cpp:141] Setting up conv1_bn
I1014 10:34:23.261145 27011 net.cpp:148] Top shape: 1 64 112 112 (802816)
I1014 10:34:23.261147 27011 net.cpp:156] Memory required for data: 8228868
I1014 10:34:23.261153 27011 layer_factory.hpp:77] Creating layer conv1_scale
I1014 10:34:23.261158 27011 net.cpp:91] Creating Layer conv1_scale
I1014 10:34:23.261160 27011 net.cpp:425] conv1_scale <- conv1
I1014 10:34:23.261163 27011 net.cpp:386] conv1_scale -> conv1 (in-place)
I1014 10:34:23.261184 27011 layer_factory.hpp:77] Creating layer conv1_scale
I1014 10:34:23.261251 27011 net.cpp:141] Setting up conv1_scale
I1014 10:34:23.261255 27011 net.cpp:148] Top shape: 1 64 112 112 (802816)
I1014 10:34:23.261257 27011 net.cpp:156] Memory required for data: 11440132
I1014 10:34:23.261261 27011 layer_factory.hpp:77] Creating layer conv1_relu
I1014 10:34:23.261265 27011 net.cpp:91] Creating Layer conv1_relu
I1014 10:34:23.261267 27011 net.cpp:425] conv1_relu <- conv1
I1014 10:34:23.261270 27011 net.cpp:386] conv1_relu -> conv1 (in-place)
I1014 10:34:23.261277 27011 net.cpp:141] Setting up conv1_relu
I1014 10:34:23.261281 27011 net.cpp:148] Top shape: 1 64 112 112 (802816)
I1014 10:34:23.261282 27011 net.cpp:156] Memory required for data: 14651396
I1014 10:34:23.261284 27011 layer_factory.hpp:77] Creating layer conv1_pool
I1014 10:34:23.261288 27011 net.cpp:91] Creating Layer conv1_pool
I1014 10:34:23.261291 27011 net.cpp:425] conv1_pool <- conv1
I1014 10:34:23.261294 27011 net.cpp:399] conv1_pool -> conv1_pool
I1014 10:34:23.261320 27011 net.cpp:141] Setting up conv1_pool
I1014 10:34:23.261324 27011 net.cpp:148] Top shape: 1 64 56 56 (200704)
I1014 10:34:23.261327 27011 net.cpp:156] Memory required for data: 15454212
I1014 10:34:23.261329 27011 layer_factory.hpp:77] Creating layer layer_64_1_conv1
I1014 10:34:23.261335 27011 net.cpp:91] Creating Layer layer_64_1_conv1
I1014 10:34:23.261337 27011 net.cpp:425] layer_64_1_conv1 <- conv1_pool
I1014 10:34:23.261342 27011 net.cpp:399] layer_64_1_conv1 -> layer_64_1_conv1
I1014 10:34:23.261735 27011 net.cpp:141] Setting up layer_64_1_conv1
I1014 10:34:23.261742 27011 net.cpp:148] Top shape: 1 64 56 56 (200704)
I1014 10:34:23.261744 27011 net.cpp:156] Memory required for data: 16257028
I1014 10:34:23.261747 27011 layer_factory.hpp:77] Creating layer layer_64_1_bn2
I1014 10:34:23.261752 27011 net.cpp:91] Creating Layer layer_64_1_bn2
I1014 10:34:23.261755 27011 net.cpp:425] layer_64_1_bn2 <- layer_64_1_conv1
I1014 10:34:23.261759 27011 net.cpp:386] layer_64_1_bn2 -> layer_64_1_conv1 (in-place)
I1014 10:34:23.261855 27011 net.cpp:141] Setting up layer_64_1_bn2
I1014 10:34:23.261859 27011 net.cpp:148] Top shape: 1 64 56 56 (200704)
I1014 10:34:23.261862 27011 net.cpp:156] Memory required for data: 17059844
I1014 10:34:23.261865 27011 layer_factory.hpp:77] Creating layer layer_64_1_scale2
I1014 10:34:23.261870 27011 net.cpp:91] Creating Layer layer_64_1_scale2
I1014 10:34:23.261873 27011 net.cpp:425] layer_64_1_scale2 <- layer_64_1_conv1
I1014 10:34:23.261875 27011 net.cpp:386] layer_64_1_scale2 -> layer_64_1_conv1 (in-place)
I1014 10:34:23.261896 27011 layer_factory.hpp:77] Creating layer layer_64_1_scale2
I1014 10:34:23.261965 27011 net.cpp:141] Setting up layer_64_1_scale2
I1014 10:34:23.261970 27011 net.cpp:148] Top shape: 1 64 56 56 (200704)
I1014 10:34:23.261971 27011 net.cpp:156] Memory required for data: 17862660
I1014 10:34:23.261979 27011 layer_factory.hpp:77] Creating layer layer_64_1_relu2
I1014 10:34:23.261991 27011 net.cpp:91] Creating Layer layer_64_1_relu2
I1014 10:34:23.261992 27011 net.cpp:425] layer_64_1_relu2 <- layer_64_1_conv1
I1014 10:34:23.261996 27011 net.cpp:386] layer_64_1_relu2 -> layer_64_1_conv1 (in-place)
I1014 10:34:23.261999 27011 net.cpp:141] Setting up layer_64_1_relu2
I1014 10:34:23.262002 27011 net.cpp:148] Top shape: 1 64 56 56 (200704)
I1014 10:34:23.262004 27011 net.cpp:156] Memory required for data: 18665476
I1014 10:34:23.262006 27011 layer_factory.hpp:77] Creating layer layer_64_1_conv1_layer_64_1_relu2_0_split
I1014 10:34:23.262013 27011 net.cpp:91] Creating Layer layer_64_1_conv1_layer_64_1_relu2_0_split
I1014 10:34:23.262015 27011 net.cpp:425] layer_64_1_conv1_layer_64_1_relu2_0_split <- layer_64_1_conv1
I1014 10:34:23.262018 27011 net.cpp:399] layer_64_1_conv1_layer_64_1_relu2_0_split -> layer_64_1_conv1_layer_64_1_relu2_0_split_0
I1014 10:34:23.262022 27011 net.cpp:399] layer_64_1_conv1_layer_64_1_relu2_0_split -> layer_64_1_conv1_layer_64_1_relu2_0_split_1
I1014 10:34:23.262048 27011 net.cpp:141] Setting up layer_64_1_conv1_layer_64_1_relu2_0_split
I1014 10:34:23.262051 27011 net.cpp:148] Top shape: 1 64 56 56 (200704)
I1014 10:34:23.262054 27011 net.cpp:148] Top shape: 1 64 56 56 (200704)
I1014 10:34:23.262056 27011 net.cpp:156] Memory required for data: 20271108
I1014 10:34:23.262058 27011 layer_factory.hpp:77] Creating layer layer_64_1_conv2
I1014 10:34:23.262064 27011 net.cpp:91] Creating Layer layer_64_1_conv2
I1014 10:34:23.262068 27011 net.cpp:425] layer_64_1_conv2 <- layer_64_1_conv1_layer_64_1_relu2_0_split_0
I1014 10:34:23.262070 27011 net.cpp:399] layer_64_1_conv2 -> layer_64_1_conv2
I1014 10:34:23.262605 27011 net.cpp:141] Setting up layer_64_1_conv2
I1014 10:34:23.262610 27011 net.cpp:148] Top shape: 1 64 56 56 (200704)
I1014 10:34:23.262612 27011 net.cpp:156] Memory required for data: 21073924
I1014 10:34:23.262615 27011 layer_factory.hpp:77] Creating layer layer_64_1_bn3
I1014 10:34:23.262620 27011 net.cpp:91] Creating Layer layer_64_1_bn3
I1014 10:34:23.262622 27011 net.cpp:425] layer_64_1_bn3 <- layer_64_1_conv2
I1014 10:34:23.262627 27011 net.cpp:386] layer_64_1_bn3 -> layer_64_1_conv2 (in-place)
I1014 10:34:23.262730 27011 net.cpp:141] Setting up layer_64_1_bn3
I1014 10:34:23.262734 27011 net.cpp:148] Top shape: 1 64 56 56 (200704)
I1014 10:34:23.262737 27011 net.cpp:156] Memory required for data: 21876740
I1014 10:34:23.262740 27011 layer_factory.hpp:77] Creating layer layer_64_1_scale3
I1014 10:34:23.262748 27011 net.cpp:91] Creating Layer layer_64_1_scale3
I1014 10:34:23.262749 27011 net.cpp:425] layer_64_1_scale3 <- layer_64_1_conv2
I1014 10:34:23.262753 27011 net.cpp:386] layer_64_1_scale3 -> layer_64_1_conv2 (in-place)
I1014 10:34:23.262774 27011 layer_factory.hpp:77] Creating layer layer_64_1_scale3
I1014 10:34:23.262845 27011 net.cpp:141] Setting up layer_64_1_scale3
I1014 10:34:23.262850 27011 net.cpp:148] Top shape: 1 64 56 56 (200704)
I1014 10:34:23.262851 27011 net.cpp:156] Memory required for data: 22679556
I1014 10:34:23.262854 27011 layer_factory.hpp:77] Creating layer layer_64_1_relu3
I1014 10:34:23.262858 27011 net.cpp:91] Creating Layer layer_64_1_relu3
I1014 10:34:23.262862 27011 net.cpp:425] layer_64_1_relu3 <- layer_64_1_conv2
I1014 10:34:23.262866 27011 net.cpp:386] layer_64_1_relu3 -> layer_64_1_conv2 (in-place)
I1014 10:34:23.262868 27011 net.cpp:141] Setting up layer_64_1_relu3
I1014 10:34:23.262871 27011 net.cpp:148] Top shape: 1 64 56 56 (200704)
I1014 10:34:23.262873 27011 net.cpp:156] Memory required for data: 23482372
I1014 10:34:23.262876 27011 layer_factory.hpp:77] Creating layer layer_64_1_conv3
I1014 10:34:23.262881 27011 net.cpp:91] Creating Layer layer_64_1_conv3
I1014 10:34:23.262884 27011 net.cpp:425] layer_64_1_conv3 <- layer_64_1_conv2
I1014 10:34:23.262887 27011 net.cpp:399] layer_64_1_conv3 -> layer_64_1_conv3
I1014 10:34:23.263190 27011 net.cpp:141] Setting up layer_64_1_conv3
I1014 10:34:23.263197 27011 net.cpp:148] Top shape: 1 256 56 56 (802816)
I1014 10:34:23.263205 27011 net.cpp:156] Memory required for data: 26693636
I1014 10:34:23.263208 27011 layer_factory.hpp:77] Creating layer layer_64_1_conv_expand
I1014 10:34:23.263213 27011 net.cpp:91] Creating Layer layer_64_1_conv_expand
I1014 10:34:23.263216 27011 net.cpp:425] layer_64_1_conv_expand <- layer_64_1_conv1_layer_64_1_relu2_0_split_1
I1014 10:34:23.263221 27011 net.cpp:399] layer_64_1_conv_expand -> layer_64_1_conv_expand
I1014 10:34:23.263514 27011 net.cpp:141] Setting up layer_64_1_conv_expand
I1014 10:34:23.263519 27011 net.cpp:148] Top shape: 1 256 56 56 (802816)
I1014 10:34:23.263520 27011 net.cpp:156] Memory required for data: 29904900
I1014 10:34:23.263523 27011 layer_factory.hpp:77] Creating layer layer_64_1_sum
I1014 10:34:23.263527 27011 net.cpp:91] Creating Layer layer_64_1_sum
I1014 10:34:23.263530 27011 net.cpp:425] layer_64_1_sum <- layer_64_1_conv3
I1014 10:34:23.263532 27011 net.cpp:425] layer_64_1_sum <- layer_64_1_conv_expand
I1014 10:34:23.263535 27011 net.cpp:399] layer_64_1_sum -> layer_64_1_sum
I1014 10:34:23.263548 27011 net.cpp:141] Setting up layer_64_1_sum
I1014 10:34:23.263552 27011 net.cpp:148] Top shape: 1 256 56 56 (802816)
I1014 10:34:23.263555 27011 net.cpp:156] Memory required for data: 33116164
I1014 10:34:23.263556 27011 layer_factory.hpp:77] Creating layer layer_64_1_sum_layer_64_1_sum_0_split
I1014 10:34:23.263559 27011 net.cpp:91] Creating Layer layer_64_1_sum_layer_64_1_sum_0_split
I1014 10:34:23.263561 27011 net.cpp:425] layer_64_1_sum_layer_64_1_sum_0_split <- layer_64_1_sum
I1014 10:34:23.263564 27011 net.cpp:399] layer_64_1_sum_layer_64_1_sum_0_split -> layer_64_1_sum_layer_64_1_sum_0_split_0
I1014 10:34:23.263568 27011 net.cpp:399] layer_64_1_sum_layer_64_1_sum_0_split -> layer_64_1_sum_layer_64_1_sum_0_split_1
I1014 10:34:23.263587 27011 net.cpp:141] Setting up layer_64_1_sum_layer_64_1_sum_0_split
I1014 10:34:23.263591 27011 net.cpp:148] Top shape: 1 256 56 56 (802816)
I1014 10:34:23.263593 27011 net.cpp:148] Top shape: 1 256 56 56 (802816)
I1014 10:34:23.263595 27011 net.cpp:156] Memory required for data: 39538692
I1014 10:34:23.263597 27011 layer_factory.hpp:77] Creating layer layer_64_2_bn1
I1014 10:34:23.263602 27011 net.cpp:91] Creating Layer layer_64_2_bn1
I1014 10:34:23.263603 27011 net.cpp:425] layer_64_2_bn1 <- layer_64_1_sum_layer_64_1_sum_0_split_0
I1014 10:34:23.263607 27011 net.cpp:399] layer_64_2_bn1 -> layer_64_2_bn1
I1014 10:34:23.263715 27011 net.cpp:141] Setting up layer_64_2_bn1
I1014 10:34:23.263718 27011 net.cpp:148] Top shape: 1 256 56 56 (802816)
I1014 10:34:23.263720 27011 net.cpp:156] Memory required for data: 42749956
I1014 10:34:23.263725 27011 layer_factory.hpp:77] Creating layer layer_64_2_scale1
I1014 10:34:23.263730 27011 net.cpp:91] Creating Layer layer_64_2_scale1
I1014 10:34:23.263732 27011 net.cpp:425] layer_64_2_scale1 <- layer_64_2_bn1
I1014 10:34:23.263736 27011 net.cpp:386] layer_64_2_scale1 -> layer_64_2_bn1 (in-place)
I1014 10:34:23.263756 27011 layer_factory.hpp:77] Creating layer layer_64_2_scale1
I1014 10:34:23.263819 27011 net.cpp:141] Setting up layer_64_2_scale1
I1014 10:34:23.263823 27011 net.cpp:148] Top shape: 1 256 56 56 (802816)
I1014 10:34:23.263825 27011 net.cpp:156] Memory required for data: 45961220
I1014 10:34:23.263828 27011 layer_factory.hpp:77] Creating layer layer_64_2_relu1
I1014 10:34:23.263834 27011 net.cpp:91] Creating Layer layer_64_2_relu1
I1014 10:34:23.263837 27011 net.cpp:425] layer_64_2_relu1 <- layer_64_2_bn1
I1014 10:34:23.263840 27011 net.cpp:386] layer_64_2_relu1 -> layer_64_2_bn1 (in-place)
I1014 10:34:23.263844 27011 net.cpp:141] Setting up layer_64_2_relu1
I1014 10:34:23.263846 27011 net.cpp:148] Top shape: 1 256 56 56 (802816)
I1014 10:34:23.263849 27011 net.cpp:156] Memory required for data: 49172484
I1014 10:34:23.263850 27011 layer_factory.hpp:77] Creating layer layer_64_2_conv1
I1014 10:34:23.263856 27011 net.cpp:91] Creating Layer layer_64_2_conv1
I1014 10:34:23.263859 27011 net.cpp:425] layer_64_2_conv1 <- layer_64_2_bn1
I1014 10:34:23.263865 27011 net.cpp:399] layer_64_2_conv1 -> layer_64_2_conv1
I1014 10:34:23.264159 27011 net.cpp:141] Setting up layer_64_2_conv1
I1014 10:34:23.264163 27011 net.cpp:148] Top shape: 1 64 56 56 (200704)
I1014 10:34:23.264165 27011 net.cpp:156] Memory required for data: 49975300
I1014 10:34:23.264168 27011 layer_factory.hpp:77] Creating layer layer_64_2_bn2
I1014 10:34:23.264173 27011 net.cpp:91] Creating Layer layer_64_2_bn2
I1014 10:34:23.264175 27011 net.cpp:425] layer_64_2_bn2 <- layer_64_2_conv1
I1014 10:34:23.264178 27011 net.cpp:386] layer_64_2_bn2 -> layer_64_2_conv1 (in-place)
I1014 10:34:23.264281 27011 net.cpp:141] Setting up layer_64_2_bn2
I1014 10:34:23.264284 27011 net.cpp:148] Top shape: 1 64 56 56 (200704)
I1014 10:34:23.264286 27011 net.cpp:156] Memory required for data: 50778116
I1014 10:34:23.264295 27011 layer_factory.hpp:77] Creating layer layer_64_2_scale2
I1014 10:34:23.264299 27011 net.cpp:91] Creating Layer layer_64_2_scale2
I1014 10:34:23.264302 27011 net.cpp:425] layer_64_2_scale2 <- layer_64_2_conv1
I1014 10:34:23.264304 27011 net.cpp:386] layer_64_2_scale2 -> layer_64_2_conv1 (in-place)
I1014 10:34:23.264327 27011 layer_factory.hpp:77] Creating layer layer_64_2_scale2
I1014 10:34:23.264407 27011 net.cpp:141] Setting up layer_64_2_scale2
I1014 10:34:23.264411 27011 net.cpp:148] Top shape: 1 64 56 56 (200704)
I1014 10:34:23.264412 27011 net.cpp:156] Memory required for data: 51580932
I1014 10:34:23.264416 27011 layer_factory.hpp:77] Creating layer layer_64_2_relu2
I1014 10:34:23.264420 27011 net.cpp:91] Creating Layer layer_64_2_relu2
I1014 10:34:23.264421 27011 net.cpp:425] layer_64_2_relu2 <- layer_64_2_conv1
I1014 10:34:23.264425 27011 net.cpp:386] layer_64_2_relu2 -> layer_64_2_conv1 (in-place)
I1014 10:34:23.264427 27011 net.cpp:141] Setting up layer_64_2_relu2
I1014 10:34:23.264430 27011 net.cpp:148] Top shape: 1 64 56 56 (200704)
I1014 10:34:23.264432 27011 net.cpp:156] Memory required for data: 52383748
I1014 10:34:23.264434 27011 layer_factory.hpp:77] Creating layer layer_64_2_conv2
I1014 10:34:23.264441 27011 net.cpp:91] Creating Layer layer_64_2_conv2
I1014 10:34:23.264442 27011 net.cpp:425] layer_64_2_conv2 <- layer_64_2_conv1
I1014 10:34:23.264446 27011 net.cpp:399] layer_64_2_conv2 -> layer_64_2_conv2
I1014 10:34:23.264969 27011 net.cpp:141] Setting up layer_64_2_conv2
I1014 10:34:23.264974 27011 net.cpp:148] Top shape: 1 64 56 56 (200704)
I1014 10:34:23.264976 27011 net.cpp:156] Memory required for data: 53186564
I1014 10:34:23.264978 27011 layer_factory.hpp:77] Creating layer layer_64_2_bn3
I1014 10:34:23.264982 27011 net.cpp:91] Creating Layer layer_64_2_bn3
I1014 10:34:23.264984 27011 net.cpp:425] layer_64_2_bn3 <- layer_64_2_conv2
I1014 10:34:23.264988 27011 net.cpp:386] layer_64_2_bn3 -> layer_64_2_conv2 (in-place)
I1014 10:34:23.265094 27011 net.cpp:141] Setting up layer_64_2_bn3
I1014 10:34:23.265097 27011 net.cpp:148] Top shape: 1 64 56 56 (200704)
I1014 10:34:23.265100 27011 net.cpp:156] Memory required for data: 53989380
I1014 10:34:23.265103 27011 layer_factory.hpp:77] Creating layer layer_64_2_scale3
I1014 10:34:23.265107 27011 net.cpp:91] Creating Layer layer_64_2_scale3
I1014 10:34:23.265110 27011 net.cpp:425] layer_64_2_scale3 <- layer_64_2_conv2
I1014 10:34:23.265113 27011 net.cpp:386] layer_64_2_scale3 -> layer_64_2_conv2 (in-place)
I1014 10:34:23.265132 27011 layer_factory.hpp:77] Creating layer layer_64_2_scale3
I1014 10:34:23.265198 27011 net.cpp:141] Setting up layer_64_2_scale3
I1014 10:34:23.265202 27011 net.cpp:148] Top shape: 1 64 56 56 (200704)
I1014 10:34:23.265204 27011 net.cpp:156] Memory required for data: 54792196
I1014 10:34:23.265208 27011 layer_factory.hpp:77] Creating layer layer_64_2_relu3
I1014 10:34:23.265211 27011 net.cpp:91] Creating Layer layer_64_2_relu3
I1014 10:34:23.265213 27011 net.cpp:425] layer_64_2_relu3 <- layer_64_2_conv2
I1014 10:34:23.265218 27011 net.cpp:386] layer_64_2_relu3 -> layer_64_2_conv2 (in-place)
I1014 10:34:23.265220 27011 net.cpp:141] Setting up layer_64_2_relu3
I1014 10:34:23.265223 27011 net.cpp:148] Top shape: 1 64 56 56 (200704)
I1014 10:34:23.265226 27011 net.cpp:156] Memory required for data: 55595012
I1014 10:34:23.265233 27011 layer_factory.hpp:77] Creating layer layer_64_2_conv3
I1014 10:34:23.265241 27011 net.cpp:91] Creating Layer layer_64_2_conv3
I1014 10:34:23.265244 27011 net.cpp:425] layer_64_2_conv3 <- layer_64_2_conv2
I1014 10:34:23.265249 27011 net.cpp:399] layer_64_2_conv3 -> layer_64_2_conv3
I1014 10:34:23.265533 27011 net.cpp:141] Setting up layer_64_2_conv3
I1014 10:34:23.265537 27011 net.cpp:148] Top shape: 1 256 56 56 (802816)
I1014 10:34:23.265539 27011 net.cpp:156] Memory required for data: 58806276
I1014 10:34:23.265542 27011 layer_factory.hpp:77] Creating layer layer_64_2_sum
I1014 10:34:23.265545 27011 net.cpp:91] Creating Layer layer_64_2_sum
I1014 10:34:23.265547 27011 net.cpp:425] layer_64_2_sum <- layer_64_2_conv3
I1014 10:34:23.265550 27011 net.cpp:425] layer_64_2_sum <- layer_64_1_sum_layer_64_1_sum_0_split_1
I1014 10:34:23.265554 27011 net.cpp:399] layer_64_2_sum -> layer_64_2_sum
I1014 10:34:23.265566 27011 net.cpp:141] Setting up layer_64_2_sum
I1014 10:34:23.265569 27011 net.cpp:148] Top shape: 1 256 56 56 (802816)
I1014 10:34:23.265571 27011 net.cpp:156] Memory required for data: 62017540
I1014 10:34:23.265573 27011 layer_factory.hpp:77] Creating layer layer_64_2_sum_layer_64_2_sum_0_split
I1014 10:34:23.265576 27011 net.cpp:91] Creating Layer layer_64_2_sum_layer_64_2_sum_0_split
I1014 10:34:23.265578 27011 net.cpp:425] layer_64_2_sum_layer_64_2_sum_0_split <- layer_64_2_sum
I1014 10:34:23.265583 27011 net.cpp:399] layer_64_2_sum_layer_64_2_sum_0_split -> layer_64_2_sum_layer_64_2_sum_0_split_0
I1014 10:34:23.265586 27011 net.cpp:399] layer_64_2_sum_layer_64_2_sum_0_split -> layer_64_2_sum_layer_64_2_sum_0_split_1
I1014 10:34:23.265604 27011 net.cpp:141] Setting up layer_64_2_sum_layer_64_2_sum_0_split
I1014 10:34:23.265606 27011 net.cpp:148] Top shape: 1 256 56 56 (802816)
I1014 10:34:23.265609 27011 net.cpp:148] Top shape: 1 256 56 56 (802816)
I1014 10:34:23.265610 27011 net.cpp:156] Memory required for data: 68440068
I1014 10:34:23.265612 27011 layer_factory.hpp:77] Creating layer layer_64_3_bn1
I1014 10:34:23.265616 27011 net.cpp:91] Creating Layer layer_64_3_bn1
I1014 10:34:23.265619 27011 net.cpp:425] layer_64_3_bn1 <- layer_64_2_sum_layer_64_2_sum_0_split_0
I1014 10:34:23.265622 27011 net.cpp:399] layer_64_3_bn1 -> layer_64_3_bn1
I1014 10:34:23.265725 27011 net.cpp:141] Setting up layer_64_3_bn1
I1014 10:34:23.265729 27011 net.cpp:148] Top shape: 1 256 56 56 (802816)
I1014 10:34:23.265732 27011 net.cpp:156] Memory required for data: 71651332
I1014 10:34:23.265735 27011 layer_factory.hpp:77] Creating layer layer_64_3_scale1
I1014 10:34:23.265738 27011 net.cpp:91] Creating Layer layer_64_3_scale1
I1014 10:34:23.265741 27011 net.cpp:425] layer_64_3_scale1 <- layer_64_3_bn1
I1014 10:34:23.265744 27011 net.cpp:386] layer_64_3_scale1 -> layer_64_3_bn1 (in-place)
I1014 10:34:23.265765 27011 layer_factory.hpp:77] Creating layer layer_64_3_scale1
I1014 10:34:23.265825 27011 net.cpp:141] Setting up layer_64_3_scale1
I1014 10:34:23.265830 27011 net.cpp:148] Top shape: 1 256 56 56 (802816)
I1014 10:34:23.265831 27011 net.cpp:156] Memory required for data: 74862596
I1014 10:34:23.265835 27011 layer_factory.hpp:77] Creating layer layer_64_3_relu1
I1014 10:34:23.265837 27011 net.cpp:91] Creating Layer layer_64_3_relu1
I1014 10:34:23.265841 27011 net.cpp:425] layer_64_3_relu1 <- layer_64_3_bn1
I1014 10:34:23.265843 27011 net.cpp:386] layer_64_3_relu1 -> layer_64_3_bn1 (in-place)
I1014 10:34:23.265847 27011 net.cpp:141] Setting up layer_64_3_relu1
I1014 10:34:23.265849 27011 net.cpp:148] Top shape: 1 256 56 56 (802816)
I1014 10:34:23.265851 27011 net.cpp:156] Memory required for data: 78073860
I1014 10:34:23.265853 27011 layer_factory.hpp:77] Creating layer layer_64_3_conv1
I1014 10:34:23.265859 27011 net.cpp:91] Creating Layer layer_64_3_conv1
I1014 10:34:23.265861 27011 net.cpp:425] layer_64_3_conv1 <- layer_64_3_bn1
I1014 10:34:23.265864 27011 net.cpp:399] layer_64_3_conv1 -> layer_64_3_conv1
I1014 10:34:23.266157 27011 net.cpp:141] Setting up layer_64_3_conv1
I1014 10:34:23.266165 27011 net.cpp:148] Top shape: 1 64 56 56 (200704)
I1014 10:34:23.266167 27011 net.cpp:156] Memory required for data: 78876676
I1014 10:34:23.266170 27011 layer_factory.hpp:77] Creating layer layer_64_3_bn2
I1014 10:34:23.266175 27011 net.cpp:91] Creating Layer layer_64_3_bn2
I1014 10:34:23.266177 27011 net.cpp:425] layer_64_3_bn2 <- layer_64_3_conv1
I1014 10:34:23.266180 27011 net.cpp:386] layer_64_3_bn2 -> layer_64_3_conv1 (in-place)
I1014 10:34:23.266281 27011 net.cpp:141] Setting up layer_64_3_bn2
I1014 10:34:23.266285 27011 net.cpp:148] Top shape: 1 64 56 56 (200704)
I1014 10:34:23.266288 27011 net.cpp:156] Memory required for data: 79679492
I1014 10:34:23.266291 27011 layer_factory.hpp:77] Creating layer layer_64_3_scale2
I1014 10:34:23.266295 27011 net.cpp:91] Creating Layer layer_64_3_scale2
I1014 10:34:23.266299 27011 net.cpp:425] layer_64_3_scale2 <- layer_64_3_conv1
I1014 10:34:23.266301 27011 net.cpp:386] layer_64_3_scale2 -> layer_64_3_conv1 (in-place)
I1014 10:34:23.266322 27011 layer_factory.hpp:77] Creating layer layer_64_3_scale2
I1014 10:34:23.266386 27011 net.cpp:141] Setting up layer_64_3_scale2
I1014 10:34:23.266389 27011 net.cpp:148] Top shape: 1 64 56 56 (200704)
I1014 10:34:23.266391 27011 net.cpp:156] Memory required for data: 80482308
I1014 10:34:23.266394 27011 layer_factory.hpp:77] Creating layer layer_64_3_relu2
I1014 10:34:23.266398 27011 net.cpp:91] Creating Layer layer_64_3_relu2
I1014 10:34:23.266400 27011 net.cpp:425] layer_64_3_relu2 <- layer_64_3_conv1
I1014 10:34:23.266403 27011 net.cpp:386] layer_64_3_relu2 -> layer_64_3_conv1 (in-place)
I1014 10:34:23.266407 27011 net.cpp:141] Setting up layer_64_3_relu2
I1014 10:34:23.266409 27011 net.cpp:148] Top shape: 1 64 56 56 (200704)
I1014 10:34:23.266412 27011 net.cpp:156] Memory required for data: 81285124
I1014 10:34:23.266414 27011 layer_factory.hpp:77] Creating layer layer_64_3_conv2
I1014 10:34:23.266419 27011 net.cpp:91] Creating Layer layer_64_3_conv2
I1014 10:34:23.266422 27011 net.cpp:425] layer_64_3_conv2 <- layer_64_3_conv1
I1014 10:34:23.266425 27011 net.cpp:399] layer_64_3_conv2 -> layer_64_3_conv2
I1014 10:34:23.266952 27011 net.cpp:141] Setting up layer_64_3_conv2
I1014 10:34:23.266957 27011 net.cpp:148] Top shape: 1 64 56 56 (200704)
I1014 10:34:23.266958 27011 net.cpp:156] Memory required for data: 82087940
I1014 10:34:23.266962 27011 layer_factory.hpp:77] Creating layer layer_64_3_bn3
I1014 10:34:23.266964 27011 net.cpp:91] Creating Layer layer_64_3_bn3
I1014 10:34:23.266968 27011 net.cpp:425] layer_64_3_bn3 <- layer_64_3_conv2
I1014 10:34:23.266969 27011 net.cpp:386] layer_64_3_bn3 -> layer_64_3_conv2 (in-place)
I1014 10:34:23.267076 27011 net.cpp:141] Setting up layer_64_3_bn3
I1014 10:34:23.267081 27011 net.cpp:148] Top shape: 1 64 56 56 (200704)
I1014 10:34:23.267082 27011 net.cpp:156] Memory required for data: 82890756
I1014 10:34:23.267086 27011 layer_factory.hpp:77] Creating layer layer_64_3_scale3
I1014 10:34:23.267092 27011 net.cpp:91] Creating Layer layer_64_3_scale3
I1014 10:34:23.267096 27011 net.cpp:425] layer_64_3_scale3 <- layer_64_3_conv2
I1014 10:34:23.267098 27011 net.cpp:386] layer_64_3_scale3 -> layer_64_3_conv2 (in-place)
I1014 10:34:23.267138 27011 layer_factory.hpp:77] Creating layer layer_64_3_scale3
I1014 10:34:23.267217 27011 net.cpp:141] Setting up layer_64_3_scale3
I1014 10:34:23.267222 27011 net.cpp:148] Top shape: 1 64 56 56 (200704)
I1014 10:34:23.267225 27011 net.cpp:156] Memory required for data: 83693572
I1014 10:34:23.267227 27011 layer_factory.hpp:77] Creating layer layer_64_3_relu3
I1014 10:34:23.267231 27011 net.cpp:91] Creating Layer layer_64_3_relu3
I1014 10:34:23.267233 27011 net.cpp:425] layer_64_3_relu3 <- layer_64_3_conv2
I1014 10:34:23.267236 27011 net.cpp:386] layer_64_3_relu3 -> layer_64_3_conv2 (in-place)
I1014 10:34:23.267240 27011 net.cpp:141] Setting up layer_64_3_relu3
I1014 10:34:23.267242 27011 net.cpp:148] Top shape: 1 64 56 56 (200704)
I1014 10:34:23.267244 27011 net.cpp:156] Memory required for data: 84496388
I1014 10:34:23.267251 27011 layer_factory.hpp:77] Creating layer layer_64_3_conv3
I1014 10:34:23.267259 27011 net.cpp:91] Creating Layer layer_64_3_conv3
I1014 10:34:23.267261 27011 net.cpp:425] layer_64_3_conv3 <- layer_64_3_conv2
I1014 10:34:23.267266 27011 net.cpp:399] layer_64_3_conv3 -> layer_64_3_conv3
I1014 10:34:23.267552 27011 net.cpp:141] Setting up layer_64_3_conv3
I1014 10:34:23.267556 27011 net.cpp:148] Top shape: 1 256 56 56 (802816)
I1014 10:34:23.267559 27011 net.cpp:156] Memory required for data: 87707652
I1014 10:34:23.267561 27011 layer_factory.hpp:77] Creating layer layer_64_3_sum
I1014 10:34:23.267565 27011 net.cpp:91] Creating Layer layer_64_3_sum
I1014 10:34:23.267566 27011 net.cpp:425] layer_64_3_sum <- layer_64_3_conv3
I1014 10:34:23.267570 27011 net.cpp:425] layer_64_3_sum <- layer_64_2_sum_layer_64_2_sum_0_split_1
I1014 10:34:23.267572 27011 net.cpp:399] layer_64_3_sum -> layer_64_3_sum
I1014 10:34:23.267583 27011 net.cpp:141] Setting up layer_64_3_sum
I1014 10:34:23.267586 27011 net.cpp:148] Top shape: 1 256 56 56 (802816)
I1014 10:34:23.267588 27011 net.cpp:156] Memory required for data: 90918916
I1014 10:34:23.267590 27011 layer_factory.hpp:77] Creating layer layer_128_1_bn1
I1014 10:34:23.267596 27011 net.cpp:91] Creating Layer layer_128_1_bn1
I1014 10:34:23.267597 27011 net.cpp:425] layer_128_1_bn1 <- layer_64_3_sum
I1014 10:34:23.267601 27011 net.cpp:399] layer_128_1_bn1 -> layer_128_1_bn1
I1014 10:34:23.267706 27011 net.cpp:141] Setting up layer_128_1_bn1
I1014 10:34:23.267710 27011 net.cpp:148] Top shape: 1 256 56 56 (802816)
I1014 10:34:23.267712 27011 net.cpp:156] Memory required for data: 94130180
I1014 10:34:23.267720 27011 layer_factory.hpp:77] Creating layer layer_128_1_scale1
I1014 10:34:23.267725 27011 net.cpp:91] Creating Layer layer_128_1_scale1
I1014 10:34:23.267727 27011 net.cpp:425] layer_128_1_scale1 <- layer_128_1_bn1
I1014 10:34:23.267730 27011 net.cpp:386] layer_128_1_scale1 -> layer_128_1_bn1 (in-place)
I1014 10:34:23.267767 27011 layer_factory.hpp:77] Creating layer layer_128_1_scale1
I1014 10:34:23.267845 27011 net.cpp:141] Setting up layer_128_1_scale1
I1014 10:34:23.267849 27011 net.cpp:148] Top shape: 1 256 56 56 (802816)
I1014 10:34:23.267851 27011 net.cpp:156] Memory required for data: 97341444
I1014 10:34:23.267854 27011 layer_factory.hpp:77] Creating layer layer_128_1_relu1
I1014 10:34:23.267858 27011 net.cpp:91] Creating Layer layer_128_1_relu1
I1014 10:34:23.267860 27011 net.cpp:425] layer_128_1_relu1 <- layer_128_1_bn1
I1014 10:34:23.267864 27011 net.cpp:386] layer_128_1_relu1 -> layer_128_1_bn1 (in-place)
I1014 10:34:23.267868 27011 net.cpp:141] Setting up layer_128_1_relu1
I1014 10:34:23.267870 27011 net.cpp:148] Top shape: 1 256 56 56 (802816)
I1014 10:34:23.267873 27011 net.cpp:156] Memory required for data: 100552708
I1014 10:34:23.267874 27011 layer_factory.hpp:77] Creating layer layer_128_1_bn1_layer_128_1_relu1_0_split
I1014 10:34:23.267876 27011 net.cpp:91] Creating Layer layer_128_1_bn1_layer_128_1_relu1_0_split
I1014 10:34:23.267879 27011 net.cpp:425] layer_128_1_bn1_layer_128_1_relu1_0_split <- layer_128_1_bn1
I1014 10:34:23.267881 27011 net.cpp:399] layer_128_1_bn1_layer_128_1_relu1_0_split -> layer_128_1_bn1_layer_128_1_relu1_0_split_0
I1014 10:34:23.267885 27011 net.cpp:399] layer_128_1_bn1_layer_128_1_relu1_0_split -> layer_128_1_bn1_layer_128_1_relu1_0_split_1
I1014 10:34:23.267905 27011 net.cpp:141] Setting up layer_128_1_bn1_layer_128_1_relu1_0_split
I1014 10:34:23.267909 27011 net.cpp:148] Top shape: 1 256 56 56 (802816)
I1014 10:34:23.267911 27011 net.cpp:148] Top shape: 1 256 56 56 (802816)
I1014 10:34:23.267913 27011 net.cpp:156] Memory required for data: 106975236
I1014 10:34:23.267915 27011 layer_factory.hpp:77] Creating layer layer_128_1_conv1
I1014 10:34:23.267920 27011 net.cpp:91] Creating Layer layer_128_1_conv1
I1014 10:34:23.267922 27011 net.cpp:425] layer_128_1_conv1 <- layer_128_1_bn1_layer_128_1_relu1_0_split_0
I1014 10:34:23.267926 27011 net.cpp:399] layer_128_1_conv1 -> layer_128_1_conv1
I1014 10:34:23.268662 27011 net.cpp:141] Setting up layer_128_1_conv1
I1014 10:34:23.268676 27011 net.cpp:148] Top shape: 1 128 56 56 (401408)
I1014 10:34:23.268677 27011 net.cpp:156] Memory required for data: 108580868
I1014 10:34:23.268681 27011 layer_factory.hpp:77] Creating layer layer_128_1_bn2
I1014 10:34:23.268685 27011 net.cpp:91] Creating Layer layer_128_1_bn2
I1014 10:34:23.268688 27011 net.cpp:425] layer_128_1_bn2 <- layer_128_1_conv1
I1014 10:34:23.268692 27011 net.cpp:386] layer_128_1_bn2 -> layer_128_1_conv1 (in-place)
I1014 10:34:23.268796 27011 net.cpp:141] Setting up layer_128_1_bn2
I1014 10:34:23.268800 27011 net.cpp:148] Top shape: 1 128 56 56 (401408)
I1014 10:34:23.268802 27011 net.cpp:156] Memory required for data: 110186500
I1014 10:34:23.268806 27011 layer_factory.hpp:77] Creating layer layer_128_1_scale2
I1014 10:34:23.268810 27011 net.cpp:91] Creating Layer layer_128_1_scale2
I1014 10:34:23.268812 27011 net.cpp:425] layer_128_1_scale2 <- layer_128_1_conv1
I1014 10:34:23.268817 27011 net.cpp:386] layer_128_1_scale2 -> layer_128_1_conv1 (in-place)
I1014 10:34:23.268839 27011 layer_factory.hpp:77] Creating layer layer_128_1_scale2
I1014 10:34:23.268903 27011 net.cpp:141] Setting up layer_128_1_scale2
I1014 10:34:23.268906 27011 net.cpp:148] Top shape: 1 128 56 56 (401408)
I1014 10:34:23.268908 27011 net.cpp:156] Memory required for data: 111792132
I1014 10:34:23.268911 27011 layer_factory.hpp:77] Creating layer layer_128_1_relu2
I1014 10:34:23.268915 27011 net.cpp:91] Creating Layer layer_128_1_relu2
I1014 10:34:23.268918 27011 net.cpp:425] layer_128_1_relu2 <- layer_128_1_conv1
I1014 10:34:23.268921 27011 net.cpp:386] layer_128_1_relu2 -> layer_128_1_conv1 (in-place)
I1014 10:34:23.268924 27011 net.cpp:141] Setting up layer_128_1_relu2
I1014 10:34:23.268928 27011 net.cpp:148] Top shape: 1 128 56 56 (401408)
I1014 10:34:23.268929 27011 net.cpp:156] Memory required for data: 113397764
I1014 10:34:23.268931 27011 layer_factory.hpp:77] Creating layer layer_128_1_conv2
I1014 10:34:23.268939 27011 net.cpp:91] Creating Layer layer_128_1_conv2
I1014 10:34:23.268941 27011 net.cpp:425] layer_128_1_conv2 <- layer_128_1_conv1
I1014 10:34:23.268945 27011 net.cpp:399] layer_128_1_conv2 -> layer_128_1_conv2
I1014 10:34:23.271016 27011 net.cpp:141] Setting up layer_128_1_conv2
I1014 10:34:23.271025 27011 net.cpp:148] Top shape: 1 128 28 28 (100352)
I1014 10:34:23.271028 27011 net.cpp:156] Memory required for data: 113799172
I1014 10:34:23.271030 27011 layer_factory.hpp:77] Creating layer layer_128_1_bn3
I1014 10:34:23.271035 27011 net.cpp:91] Creating Layer layer_128_1_bn3
I1014 10:34:23.271039 27011 net.cpp:425] layer_128_1_bn3 <- layer_128_1_conv2
I1014 10:34:23.271041 27011 net.cpp:386] layer_128_1_bn3 -> layer_128_1_conv2 (in-place)
I1014 10:34:23.271389 27011 net.cpp:141] Setting up layer_128_1_bn3
I1014 10:34:23.271395 27011 net.cpp:148] Top shape: 1 128 28 28 (100352)
I1014 10:34:23.271399 27011 net.cpp:156] Memory required for data: 114200580
I1014 10:34:23.271402 27011 layer_factory.hpp:77] Creating layer layer_128_1_scale3
I1014 10:34:23.271407 27011 net.cpp:91] Creating Layer layer_128_1_scale3
I1014 10:34:23.271409 27011 net.cpp:425] layer_128_1_scale3 <- layer_128_1_conv2
I1014 10:34:23.271412 27011 net.cpp:386] layer_128_1_scale3 -> layer_128_1_conv2 (in-place)
I1014 10:34:23.271435 27011 layer_factory.hpp:77] Creating layer layer_128_1_scale3
I1014 10:34:23.271499 27011 net.cpp:141] Setting up layer_128_1_scale3
I1014 10:34:23.271503 27011 net.cpp:148] Top shape: 1 128 28 28 (100352)
I1014 10:34:23.271505 27011 net.cpp:156] Memory required for data: 114601988
I1014 10:34:23.271508 27011 layer_factory.hpp:77] Creating layer layer_128_1_relu3
I1014 10:34:23.271512 27011 net.cpp:91] Creating Layer layer_128_1_relu3
I1014 10:34:23.271514 27011 net.cpp:425] layer_128_1_relu3 <- layer_128_1_conv2
I1014 10:34:23.271517 27011 net.cpp:386] layer_128_1_relu3 -> layer_128_1_conv2 (in-place)
I1014 10:34:23.271522 27011 net.cpp:141] Setting up layer_128_1_relu3
I1014 10:34:23.271524 27011 net.cpp:148] Top shape: 1 128 28 28 (100352)
I1014 10:34:23.271528 27011 net.cpp:156] Memory required for data: 115003396
I1014 10:34:23.271535 27011 layer_factory.hpp:77] Creating layer layer_128_1_conv3
I1014 10:34:23.271540 27011 net.cpp:91] Creating Layer layer_128_1_conv3
I1014 10:34:23.271543 27011 net.cpp:425] layer_128_1_conv3 <- layer_128_1_conv2
I1014 10:34:23.271548 27011 net.cpp:399] layer_128_1_conv3 -> layer_128_1_conv3
I1014 10:34:23.272405 27011 net.cpp:141] Setting up layer_128_1_conv3
I1014 10:34:23.272410 27011 net.cpp:148] Top shape: 1 512 28 28 (401408)
I1014 10:34:23.272413 27011 net.cpp:156] Memory required for data: 116609028
I1014 10:34:23.272415 27011 layer_factory.hpp:77] Creating layer layer_128_1_conv_expand
I1014 10:34:23.272421 27011 net.cpp:91] Creating Layer layer_128_1_conv_expand
I1014 10:34:23.272423 27011 net.cpp:425] layer_128_1_conv_expand <- layer_128_1_bn1_layer_128_1_relu1_0_split_1
I1014 10:34:23.272428 27011 net.cpp:399] layer_128_1_conv_expand -> layer_128_1_conv_expand
I1014 10:34:23.274277 27011 net.cpp:141] Setting up layer_128_1_conv_expand
I1014 10:34:23.274284 27011 net.cpp:148] Top shape: 1 512 28 28 (401408)
I1014 10:34:23.274286 27011 net.cpp:156] Memory required for data: 118214660
I1014 10:34:23.274291 27011 layer_factory.hpp:77] Creating layer layer_128_1_sum
I1014 10:34:23.274294 27011 net.cpp:91] Creating Layer layer_128_1_sum
I1014 10:34:23.274296 27011 net.cpp:425] layer_128_1_sum <- layer_128_1_conv3
I1014 10:34:23.274299 27011 net.cpp:425] layer_128_1_sum <- layer_128_1_conv_expand
I1014 10:34:23.274302 27011 net.cpp:399] layer_128_1_sum -> layer_128_1_sum
I1014 10:34:23.274315 27011 net.cpp:141] Setting up layer_128_1_sum
I1014 10:34:23.274319 27011 net.cpp:148] Top shape: 1 512 28 28 (401408)
I1014 10:34:23.274322 27011 net.cpp:156] Memory required for data: 119820292
I1014 10:34:23.274323 27011 layer_factory.hpp:77] Creating layer layer_128_1_sum_layer_128_1_sum_0_split
I1014 10:34:23.274327 27011 net.cpp:91] Creating Layer layer_128_1_sum_layer_128_1_sum_0_split
I1014 10:34:23.274329 27011 net.cpp:425] layer_128_1_sum_layer_128_1_sum_0_split <- layer_128_1_sum
I1014 10:34:23.274333 27011 net.cpp:399] layer_128_1_sum_layer_128_1_sum_0_split -> layer_128_1_sum_layer_128_1_sum_0_split_0
I1014 10:34:23.274338 27011 net.cpp:399] layer_128_1_sum_layer_128_1_sum_0_split -> layer_128_1_sum_layer_128_1_sum_0_split_1
I1014 10:34:23.274356 27011 net.cpp:141] Setting up layer_128_1_sum_layer_128_1_sum_0_split
I1014 10:34:23.274359 27011 net.cpp:148] Top shape: 1 512 28 28 (401408)
I1014 10:34:23.274363 27011 net.cpp:148] Top shape: 1 512 28 28 (401408)
I1014 10:34:23.274363 27011 net.cpp:156] Memory required for data: 123031556
I1014 10:34:23.274365 27011 layer_factory.hpp:77] Creating layer layer_128_2_bn1
I1014 10:34:23.274374 27011 net.cpp:91] Creating Layer layer_128_2_bn1
I1014 10:34:23.274376 27011 net.cpp:425] layer_128_2_bn1 <- layer_128_1_sum_layer_128_1_sum_0_split_0
I1014 10:34:23.274380 27011 net.cpp:399] layer_128_2_bn1 -> layer_128_2_bn1
I1014 10:34:23.274493 27011 net.cpp:141] Setting up layer_128_2_bn1
I1014 10:34:23.274497 27011 net.cpp:148] Top shape: 1 512 28 28 (401408)
I1014 10:34:23.274499 27011 net.cpp:156] Memory required for data: 124637188
I1014 10:34:23.274503 27011 layer_factory.hpp:77] Creating layer layer_128_2_scale1
I1014 10:34:23.274508 27011 net.cpp:91] Creating Layer layer_128_2_scale1
I1014 10:34:23.274510 27011 net.cpp:425] layer_128_2_scale1 <- layer_128_2_bn1
I1014 10:34:23.274514 27011 net.cpp:386] layer_128_2_scale1 -> layer_128_2_bn1 (in-place)
I1014 10:34:23.274538 27011 layer_factory.hpp:77] Creating layer layer_128_2_scale1
I1014 10:34:23.274598 27011 net.cpp:141] Setting up layer_128_2_scale1
I1014 10:34:23.274602 27011 net.cpp:148] Top shape: 1 512 28 28 (401408)
I1014 10:34:23.274605 27011 net.cpp:156] Memory required for data: 126242820
I1014 10:34:23.274608 27011 layer_factory.hpp:77] Creating layer layer_128_2_relu1
I1014 10:34:23.274612 27011 net.cpp:91] Creating Layer layer_128_2_relu1
I1014 10:34:23.274615 27011 net.cpp:425] layer_128_2_relu1 <- layer_128_2_bn1
I1014 10:34:23.274626 27011 net.cpp:386] layer_128_2_relu1 -> layer_128_2_bn1 (in-place)
I1014 10:34:23.274629 27011 net.cpp:141] Setting up layer_128_2_relu1
I1014 10:34:23.274632 27011 net.cpp:148] Top shape: 1 512 28 28 (401408)
I1014 10:34:23.274634 27011 net.cpp:156] Memory required for data: 127848452
I1014 10:34:23.274636 27011 layer_factory.hpp:77] Creating layer layer_128_2_conv1
I1014 10:34:23.274642 27011 net.cpp:91] Creating Layer layer_128_2_conv1
I1014 10:34:23.274644 27011 net.cpp:425] layer_128_2_conv1 <- layer_128_2_bn1
I1014 10:34:23.274649 27011 net.cpp:399] layer_128_2_conv1 -> layer_128_2_conv1
I1014 10:34:23.275518 27011 net.cpp:141] Setting up layer_128_2_conv1
I1014 10:34:23.275523 27011 net.cpp:148] Top shape: 1 128 28 28 (100352)
I1014 10:34:23.275526 27011 net.cpp:156] Memory required for data: 128249860
I1014 10:34:23.275528 27011 layer_factory.hpp:77] Creating layer layer_128_2_bn2
I1014 10:34:23.275533 27011 net.cpp:91] Creating Layer layer_128_2_bn2
I1014 10:34:23.275537 27011 net.cpp:425] layer_128_2_bn2 <- layer_128_2_conv1
I1014 10:34:23.275539 27011 net.cpp:386] layer_128_2_bn2 -> layer_128_2_conv1 (in-place)
I1014 10:34:23.275641 27011 net.cpp:141] Setting up layer_128_2_bn2
I1014 10:34:23.275645 27011 net.cpp:148] Top shape: 1 128 28 28 (100352)
I1014 10:34:23.275647 27011 net.cpp:156] Memory required for data: 128651268
I1014 10:34:23.275651 27011 layer_factory.hpp:77] Creating layer layer_128_2_scale2
I1014 10:34:23.275655 27011 net.cpp:91] Creating Layer layer_128_2_scale2
I1014 10:34:23.275657 27011 net.cpp:425] layer_128_2_scale2 <- layer_128_2_conv1
I1014 10:34:23.275661 27011 net.cpp:386] layer_128_2_scale2 -> layer_128_2_conv1 (in-place)
I1014 10:34:23.275682 27011 layer_factory.hpp:77] Creating layer layer_128_2_scale2
I1014 10:34:23.275748 27011 net.cpp:141] Setting up layer_128_2_scale2
I1014 10:34:23.275753 27011 net.cpp:148] Top shape: 1 128 28 28 (100352)
I1014 10:34:23.275754 27011 net.cpp:156] Memory required for data: 129052676
I1014 10:34:23.275758 27011 layer_factory.hpp:77] Creating layer layer_128_2_relu2
I1014 10:34:23.275761 27011 net.cpp:91] Creating Layer layer_128_2_relu2
I1014 10:34:23.275763 27011 net.cpp:425] layer_128_2_relu2 <- layer_128_2_conv1
I1014 10:34:23.275766 27011 net.cpp:386] layer_128_2_relu2 -> layer_128_2_conv1 (in-place)
I1014 10:34:23.275769 27011 net.cpp:141] Setting up layer_128_2_relu2
I1014 10:34:23.275773 27011 net.cpp:148] Top shape: 1 128 28 28 (100352)
I1014 10:34:23.275774 27011 net.cpp:156] Memory required for data: 129454084
I1014 10:34:23.275776 27011 layer_factory.hpp:77] Creating layer layer_128_2_conv2
I1014 10:34:23.275782 27011 net.cpp:91] Creating Layer layer_128_2_conv2
I1014 10:34:23.275784 27011 net.cpp:425] layer_128_2_conv2 <- layer_128_2_conv1
I1014 10:34:23.275789 27011 net.cpp:399] layer_128_2_conv2 -> layer_128_2_conv2
I1014 10:34:23.278035 27011 net.cpp:141] Setting up layer_128_2_conv2
I1014 10:34:23.278043 27011 net.cpp:148] Top shape: 1 128 28 28 (100352)
I1014 10:34:23.278044 27011 net.cpp:156] Memory required for data: 129855492
I1014 10:34:23.278048 27011 layer_factory.hpp:77] Creating layer layer_128_2_bn3
I1014 10:34:23.278053 27011 net.cpp:91] Creating Layer layer_128_2_bn3
I1014 10:34:23.278082 27011 net.cpp:425] layer_128_2_bn3 <- layer_128_2_conv2
I1014 10:34:23.278086 27011 net.cpp:386] layer_128_2_bn3 -> layer_128_2_conv2 (in-place)
I1014 10:34:23.278193 27011 net.cpp:141] Setting up layer_128_2_bn3
I1014 10:34:23.278198 27011 net.cpp:148] Top shape: 1 128 28 28 (100352)
I1014 10:34:23.278199 27011 net.cpp:156] Memory required for data: 130256900
I1014 10:34:23.278203 27011 layer_factory.hpp:77] Creating layer layer_128_2_scale3
I1014 10:34:23.278209 27011 net.cpp:91] Creating Layer layer_128_2_scale3
I1014 10:34:23.278211 27011 net.cpp:425] layer_128_2_scale3 <- layer_128_2_conv2
I1014 10:34:23.278214 27011 net.cpp:386] layer_128_2_scale3 -> layer_128_2_conv2 (in-place)
I1014 10:34:23.278236 27011 layer_factory.hpp:77] Creating layer layer_128_2_scale3
I1014 10:34:23.278300 27011 net.cpp:141] Setting up layer_128_2_scale3
I1014 10:34:23.278308 27011 net.cpp:148] Top shape: 1 128 28 28 (100352)
I1014 10:34:23.278311 27011 net.cpp:156] Memory required for data: 130658308
I1014 10:34:23.278314 27011 layer_factory.hpp:77] Creating layer layer_128_2_relu3
I1014 10:34:23.278317 27011 net.cpp:91] Creating Layer layer_128_2_relu3
I1014 10:34:23.278319 27011 net.cpp:425] layer_128_2_relu3 <- layer_128_2_conv2
I1014 10:34:23.278323 27011 net.cpp:386] layer_128_2_relu3 -> layer_128_2_conv2 (in-place)
I1014 10:34:23.278326 27011 net.cpp:141] Setting up layer_128_2_relu3
I1014 10:34:23.278329 27011 net.cpp:148] Top shape: 1 128 28 28 (100352)
I1014 10:34:23.278331 27011 net.cpp:156] Memory required for data: 131059716
I1014 10:34:23.278333 27011 layer_factory.hpp:77] Creating layer layer_128_2_conv3
I1014 10:34:23.278340 27011 net.cpp:91] Creating Layer layer_128_2_conv3
I1014 10:34:23.278342 27011 net.cpp:425] layer_128_2_conv3 <- layer_128_2_conv2
I1014 10:34:23.278347 27011 net.cpp:399] layer_128_2_conv3 -> layer_128_2_conv3
I1014 10:34:23.279249 27011 net.cpp:141] Setting up layer_128_2_conv3
I1014 10:34:23.279253 27011 net.cpp:148] Top shape: 1 512 28 28 (401408)
I1014 10:34:23.279255 27011 net.cpp:156] Memory required for data: 132665348
I1014 10:34:23.279258 27011 layer_factory.hpp:77] Creating layer layer_128_2_sum
I1014 10:34:23.279263 27011 net.cpp:91] Creating Layer layer_128_2_sum
I1014 10:34:23.279264 27011 net.cpp:425] layer_128_2_sum <- layer_128_2_conv3
I1014 10:34:23.279268 27011 net.cpp:425] layer_128_2_sum <- layer_128_1_sum_layer_128_1_sum_0_split_1
I1014 10:34:23.279269 27011 net.cpp:399] layer_128_2_sum -> layer_128_2_sum
I1014 10:34:23.279284 27011 net.cpp:141] Setting up layer_128_2_sum
I1014 10:34:23.279287 27011 net.cpp:148] Top shape: 1 512 28 28 (401408)
I1014 10:34:23.279289 27011 net.cpp:156] Memory required for data: 134270980
I1014 10:34:23.279290 27011 layer_factory.hpp:77] Creating layer layer_128_2_sum_layer_128_2_sum_0_split
I1014 10:34:23.279294 27011 net.cpp:91] Creating Layer layer_128_2_sum_layer_128_2_sum_0_split
I1014 10:34:23.279296 27011 net.cpp:425] layer_128_2_sum_layer_128_2_sum_0_split <- layer_128_2_sum
I1014 10:34:23.279299 27011 net.cpp:399] layer_128_2_sum_layer_128_2_sum_0_split -> layer_128_2_sum_layer_128_2_sum_0_split_0
I1014 10:34:23.279302 27011 net.cpp:399] layer_128_2_sum_layer_128_2_sum_0_split -> layer_128_2_sum_layer_128_2_sum_0_split_1
I1014 10:34:23.279322 27011 net.cpp:141] Setting up layer_128_2_sum_layer_128_2_sum_0_split
I1014 10:34:23.279325 27011 net.cpp:148] Top shape: 1 512 28 28 (401408)
I1014 10:34:23.279327 27011 net.cpp:148] Top shape: 1 512 28 28 (401408)
I1014 10:34:23.279330 27011 net.cpp:156] Memory required for data: 137482244
I1014 10:34:23.279331 27011 layer_factory.hpp:77] Creating layer layer_128_3_bn1
I1014 10:34:23.279335 27011 net.cpp:91] Creating Layer layer_128_3_bn1
I1014 10:34:23.279336 27011 net.cpp:425] layer_128_3_bn1 <- layer_128_2_sum_layer_128_2_sum_0_split_0
I1014 10:34:23.279340 27011 net.cpp:399] layer_128_3_bn1 -> layer_128_3_bn1
I1014 10:34:23.279450 27011 net.cpp:141] Setting up layer_128_3_bn1
I1014 10:34:23.279454 27011 net.cpp:148] Top shape: 1 512 28 28 (401408)
I1014 10:34:23.279456 27011 net.cpp:156] Memory required for data: 139087876
I1014 10:34:23.279460 27011 layer_factory.hpp:77] Creating layer layer_128_3_scale1
I1014 10:34:23.279465 27011 net.cpp:91] Creating Layer layer_128_3_scale1
I1014 10:34:23.279467 27011 net.cpp:425] layer_128_3_scale1 <- layer_128_3_bn1
I1014 10:34:23.279485 27011 net.cpp:386] layer_128_3_scale1 -> layer_128_3_bn1 (in-place)
I1014 10:34:23.279521 27011 layer_factory.hpp:77] Creating layer layer_128_3_scale1
I1014 10:34:23.279582 27011 net.cpp:141] Setting up layer_128_3_scale1
I1014 10:34:23.279587 27011 net.cpp:148] Top shape: 1 512 28 28 (401408)
I1014 10:34:23.279588 27011 net.cpp:156] Memory required for data: 140693508
I1014 10:34:23.279592 27011 layer_factory.hpp:77] Creating layer layer_128_3_relu1
I1014 10:34:23.279595 27011 net.cpp:91] Creating Layer layer_128_3_relu1
I1014 10:34:23.279599 27011 net.cpp:425] layer_128_3_relu1 <- layer_128_3_bn1
I1014 10:34:23.279606 27011 net.cpp:386] layer_128_3_relu1 -> layer_128_3_bn1 (in-place)
I1014 10:34:23.279610 27011 net.cpp:141] Setting up layer_128_3_relu1
I1014 10:34:23.279613 27011 net.cpp:148] Top shape: 1 512 28 28 (401408)
I1014 10:34:23.279615 27011 net.cpp:156] Memory required for data: 142299140
I1014 10:34:23.279618 27011 layer_factory.hpp:77] Creating layer layer_128_3_conv1
I1014 10:34:23.279623 27011 net.cpp:91] Creating Layer layer_128_3_conv1
I1014 10:34:23.279625 27011 net.cpp:425] layer_128_3_conv1 <- layer_128_3_bn1
I1014 10:34:23.279629 27011 net.cpp:399] layer_128_3_conv1 -> layer_128_3_conv1
I1014 10:34:23.280853 27011 net.cpp:141] Setting up layer_128_3_conv1
I1014 10:34:23.280859 27011 net.cpp:148] Top shape: 1 128 28 28 (100352)
I1014 10:34:23.280861 27011 net.cpp:156] Memory required for data: 142700548
I1014 10:34:23.280864 27011 layer_factory.hpp:77] Creating layer layer_128_3_bn2
I1014 10:34:23.280869 27011 net.cpp:91] Creating Layer layer_128_3_bn2
I1014 10:34:23.280871 27011 net.cpp:425] layer_128_3_bn2 <- layer_128_3_conv1
I1014 10:34:23.280874 27011 net.cpp:386] layer_128_3_bn2 -> layer_128_3_conv1 (in-place)
I1014 10:34:23.280978 27011 net.cpp:141] Setting up layer_128_3_bn2
I1014 10:34:23.280982 27011 net.cpp:148] Top shape: 1 128 28 28 (100352)
I1014 10:34:23.280983 27011 net.cpp:156] Memory required for data: 143101956
I1014 10:34:23.280987 27011 layer_factory.hpp:77] Creating layer layer_128_3_scale2
I1014 10:34:23.280992 27011 net.cpp:91] Creating Layer layer_128_3_scale2
I1014 10:34:23.280994 27011 net.cpp:425] layer_128_3_scale2 <- layer_128_3_conv1
I1014 10:34:23.280997 27011 net.cpp:386] layer_128_3_scale2 -> layer_128_3_conv1 (in-place)
I1014 10:34:23.281019 27011 layer_factory.hpp:77] Creating layer layer_128_3_scale2
I1014 10:34:23.281081 27011 net.cpp:141] Setting up layer_128_3_scale2
I1014 10:34:23.281085 27011 net.cpp:148] Top shape: 1 128 28 28 (100352)
I1014 10:34:23.281086 27011 net.cpp:156] Memory required for data: 143503364
I1014 10:34:23.281090 27011 layer_factory.hpp:77] Creating layer layer_128_3_relu2
I1014 10:34:23.281095 27011 net.cpp:91] Creating Layer layer_128_3_relu2
I1014 10:34:23.281096 27011 net.cpp:425] layer_128_3_relu2 <- layer_128_3_conv1
I1014 10:34:23.281100 27011 net.cpp:386] layer_128_3_relu2 -> layer_128_3_conv1 (in-place)
I1014 10:34:23.281102 27011 net.cpp:141] Setting up layer_128_3_relu2
I1014 10:34:23.281105 27011 net.cpp:148] Top shape: 1 128 28 28 (100352)
I1014 10:34:23.281107 27011 net.cpp:156] Memory required for data: 143904772
I1014 10:34:23.281108 27011 layer_factory.hpp:77] Creating layer layer_128_3_conv2
I1014 10:34:23.281114 27011 net.cpp:91] Creating Layer layer_128_3_conv2
I1014 10:34:23.281116 27011 net.cpp:425] layer_128_3_conv2 <- layer_128_3_conv1
I1014 10:34:23.281121 27011 net.cpp:399] layer_128_3_conv2 -> layer_128_3_conv2
I1014 10:34:23.283370 27011 net.cpp:141] Setting up layer_128_3_conv2
I1014 10:34:23.283377 27011 net.cpp:148] Top shape: 1 128 28 28 (100352)
I1014 10:34:23.283380 27011 net.cpp:156] Memory required for data: 144306180
I1014 10:34:23.283382 27011 layer_factory.hpp:77] Creating layer layer_128_3_bn3
I1014 10:34:23.283386 27011 net.cpp:91] Creating Layer layer_128_3_bn3
I1014 10:34:23.283388 27011 net.cpp:425] layer_128_3_bn3 <- layer_128_3_conv2
I1014 10:34:23.283391 27011 net.cpp:386] layer_128_3_bn3 -> layer_128_3_conv2 (in-place)
I1014 10:34:23.283527 27011 net.cpp:141] Setting up layer_128_3_bn3
I1014 10:34:23.283531 27011 net.cpp:148] Top shape: 1 128 28 28 (100352)
I1014 10:34:23.283534 27011 net.cpp:156] Memory required for data: 144707588
I1014 10:34:23.283537 27011 layer_factory.hpp:77] Creating layer layer_128_3_scale3
I1014 10:34:23.283541 27011 net.cpp:91] Creating Layer layer_128_3_scale3
I1014 10:34:23.283545 27011 net.cpp:425] layer_128_3_scale3 <- layer_128_3_conv2
I1014 10:34:23.283547 27011 net.cpp:386] layer_128_3_scale3 -> layer_128_3_conv2 (in-place)
I1014 10:34:23.283571 27011 layer_factory.hpp:77] Creating layer layer_128_3_scale3
I1014 10:34:23.283639 27011 net.cpp:141] Setting up layer_128_3_scale3
I1014 10:34:23.283643 27011 net.cpp:148] Top shape: 1 128 28 28 (100352)
I1014 10:34:23.283645 27011 net.cpp:156] Memory required for data: 145108996
I1014 10:34:23.283648 27011 layer_factory.hpp:77] Creating layer layer_128_3_relu3
I1014 10:34:23.283651 27011 net.cpp:91] Creating Layer layer_128_3_relu3
I1014 10:34:23.283654 27011 net.cpp:425] layer_128_3_relu3 <- layer_128_3_conv2
I1014 10:34:23.283658 27011 net.cpp:386] layer_128_3_relu3 -> layer_128_3_conv2 (in-place)
I1014 10:34:23.283661 27011 net.cpp:141] Setting up layer_128_3_relu3
I1014 10:34:23.283663 27011 net.cpp:148] Top shape: 1 128 28 28 (100352)
I1014 10:34:23.283665 27011 net.cpp:156] Memory required for data: 145510404
I1014 10:34:23.283668 27011 layer_factory.hpp:77] Creating layer layer_128_3_conv3
I1014 10:34:23.283673 27011 net.cpp:91] Creating Layer layer_128_3_conv3
I1014 10:34:23.283674 27011 net.cpp:425] layer_128_3_conv3 <- layer_128_3_conv2
I1014 10:34:23.283679 27011 net.cpp:399] layer_128_3_conv3 -> layer_128_3_conv3
I1014 10:34:23.284512 27011 net.cpp:141] Setting up layer_128_3_conv3
I1014 10:34:23.284518 27011 net.cpp:148] Top shape: 1 512 28 28 (401408)
I1014 10:34:23.284519 27011 net.cpp:156] Memory required for data: 147116036
I1014 10:34:23.284521 27011 layer_factory.hpp:77] Creating layer layer_128_3_sum
I1014 10:34:23.284526 27011 net.cpp:91] Creating Layer layer_128_3_sum
I1014 10:34:23.284528 27011 net.cpp:425] layer_128_3_sum <- layer_128_3_conv3
I1014 10:34:23.284531 27011 net.cpp:425] layer_128_3_sum <- layer_128_2_sum_layer_128_2_sum_0_split_1
I1014 10:34:23.284534 27011 net.cpp:399] layer_128_3_sum -> layer_128_3_sum
I1014 10:34:23.284546 27011 net.cpp:141] Setting up layer_128_3_sum
I1014 10:34:23.284549 27011 net.cpp:148] Top shape: 1 512 28 28 (401408)
I1014 10:34:23.284551 27011 net.cpp:156] Memory required for data: 148721668
I1014 10:34:23.284554 27011 layer_factory.hpp:77] Creating layer layer_128_3_sum_layer_128_3_sum_0_split
I1014 10:34:23.284556 27011 net.cpp:91] Creating Layer layer_128_3_sum_layer_128_3_sum_0_split
I1014 10:34:23.284559 27011 net.cpp:425] layer_128_3_sum_layer_128_3_sum_0_split <- layer_128_3_sum
I1014 10:34:23.284562 27011 net.cpp:399] layer_128_3_sum_layer_128_3_sum_0_split -> layer_128_3_sum_layer_128_3_sum_0_split_0
I1014 10:34:23.284566 27011 net.cpp:399] layer_128_3_sum_layer_128_3_sum_0_split -> layer_128_3_sum_layer_128_3_sum_0_split_1
I1014 10:34:23.284584 27011 net.cpp:141] Setting up layer_128_3_sum_layer_128_3_sum_0_split
I1014 10:34:23.284587 27011 net.cpp:148] Top shape: 1 512 28 28 (401408)
I1014 10:34:23.284590 27011 net.cpp:148] Top shape: 1 512 28 28 (401408)
I1014 10:34:23.284591 27011 net.cpp:156] Memory required for data: 151932932
I1014 10:34:23.284593 27011 layer_factory.hpp:77] Creating layer layer_128_4_bn1
I1014 10:34:23.284598 27011 net.cpp:91] Creating Layer layer_128_4_bn1
I1014 10:34:23.284600 27011 net.cpp:425] layer_128_4_bn1 <- layer_128_3_sum_layer_128_3_sum_0_split_0
I1014 10:34:23.284603 27011 net.cpp:399] layer_128_4_bn1 -> layer_128_4_bn1
I1014 10:34:23.284711 27011 net.cpp:141] Setting up layer_128_4_bn1
I1014 10:34:23.284714 27011 net.cpp:148] Top shape: 1 512 28 28 (401408)
I1014 10:34:23.284716 27011 net.cpp:156] Memory required for data: 153538564
I1014 10:34:23.284720 27011 layer_factory.hpp:77] Creating layer layer_128_4_scale1
I1014 10:34:23.284724 27011 net.cpp:91] Creating Layer layer_128_4_scale1
I1014 10:34:23.284726 27011 net.cpp:425] layer_128_4_scale1 <- layer_128_4_bn1
I1014 10:34:23.284729 27011 net.cpp:386] layer_128_4_scale1 -> layer_128_4_bn1 (in-place)
I1014 10:34:23.284754 27011 layer_factory.hpp:77] Creating layer layer_128_4_scale1
I1014 10:34:23.284817 27011 net.cpp:141] Setting up layer_128_4_scale1
I1014 10:34:23.284821 27011 net.cpp:148] Top shape: 1 512 28 28 (401408)
I1014 10:34:23.284822 27011 net.cpp:156] Memory required for data: 155144196
I1014 10:34:23.284826 27011 layer_factory.hpp:77] Creating layer layer_128_4_relu1
I1014 10:34:23.284832 27011 net.cpp:91] Creating Layer layer_128_4_relu1
I1014 10:34:23.284838 27011 net.cpp:425] layer_128_4_relu1 <- layer_128_4_bn1
I1014 10:34:23.284842 27011 net.cpp:386] layer_128_4_relu1 -> layer_128_4_bn1 (in-place)
I1014 10:34:23.284845 27011 net.cpp:141] Setting up layer_128_4_relu1
I1014 10:34:23.284847 27011 net.cpp:148] Top shape: 1 512 28 28 (401408)
I1014 10:34:23.284849 27011 net.cpp:156] Memory required for data: 156749828
I1014 10:34:23.284852 27011 layer_factory.hpp:77] Creating layer layer_128_4_conv1
I1014 10:34:23.284857 27011 net.cpp:91] Creating Layer layer_128_4_conv1
I1014 10:34:23.284859 27011 net.cpp:425] layer_128_4_conv1 <- layer_128_4_bn1
I1014 10:34:23.284864 27011 net.cpp:399] layer_128_4_conv1 -> layer_128_4_conv1
I1014 10:34:23.285763 27011 net.cpp:141] Setting up layer_128_4_conv1
I1014 10:34:23.285766 27011 net.cpp:148] Top shape: 1 128 28 28 (100352)
I1014 10:34:23.285769 27011 net.cpp:156] Memory required for data: 157151236
I1014 10:34:23.285771 27011 layer_factory.hpp:77] Creating layer layer_128_4_bn2
I1014 10:34:23.285775 27011 net.cpp:91] Creating Layer layer_128_4_bn2
I1014 10:34:23.285778 27011 net.cpp:425] layer_128_4_bn2 <- layer_128_4_conv1
I1014 10:34:23.285780 27011 net.cpp:386] layer_128_4_bn2 -> layer_128_4_conv1 (in-place)
I1014 10:34:23.285883 27011 net.cpp:141] Setting up layer_128_4_bn2
I1014 10:34:23.285887 27011 net.cpp:148] Top shape: 1 128 28 28 (100352)
I1014 10:34:23.285889 27011 net.cpp:156] Memory required for data: 157552644
I1014 10:34:23.285893 27011 layer_factory.hpp:77] Creating layer layer_128_4_scale2
I1014 10:34:23.285912 27011 net.cpp:91] Creating Layer layer_128_4_scale2
I1014 10:34:23.285914 27011 net.cpp:425] layer_128_4_scale2 <- layer_128_4_conv1
I1014 10:34:23.285918 27011 net.cpp:386] layer_128_4_scale2 -> layer_128_4_conv1 (in-place)
I1014 10:34:23.285940 27011 layer_factory.hpp:77] Creating layer layer_128_4_scale2
I1014 10:34:23.286015 27011 net.cpp:141] Setting up layer_128_4_scale2
I1014 10:34:23.286020 27011 net.cpp:148] Top shape: 1 128 28 28 (100352)
I1014 10:34:23.286021 27011 net.cpp:156] Memory required for data: 157954052
I1014 10:34:23.286025 27011 layer_factory.hpp:77] Creating layer layer_128_4_relu2
I1014 10:34:23.286028 27011 net.cpp:91] Creating Layer layer_128_4_relu2
I1014 10:34:23.286031 27011 net.cpp:425] layer_128_4_relu2 <- layer_128_4_conv1
I1014 10:34:23.286033 27011 net.cpp:386] layer_128_4_relu2 -> layer_128_4_conv1 (in-place)
I1014 10:34:23.286036 27011 net.cpp:141] Setting up layer_128_4_relu2
I1014 10:34:23.286039 27011 net.cpp:148] Top shape: 1 128 28 28 (100352)
I1014 10:34:23.286041 27011 net.cpp:156] Memory required for data: 158355460
I1014 10:34:23.286043 27011 layer_factory.hpp:77] Creating layer layer_128_4_conv2
I1014 10:34:23.286048 27011 net.cpp:91] Creating Layer layer_128_4_conv2
I1014 10:34:23.286051 27011 net.cpp:425] layer_128_4_conv2 <- layer_128_4_conv1
I1014 10:34:23.286056 27011 net.cpp:399] layer_128_4_conv2 -> layer_128_4_conv2
I1014 10:34:23.288175 27011 net.cpp:141] Setting up layer_128_4_conv2
I1014 10:34:23.288182 27011 net.cpp:148] Top shape: 1 128 28 28 (100352)
I1014 10:34:23.288183 27011 net.cpp:156] Memory required for data: 158756868
I1014 10:34:23.288197 27011 layer_factory.hpp:77] Creating layer layer_128_4_bn3
I1014 10:34:23.288203 27011 net.cpp:91] Creating Layer layer_128_4_bn3
I1014 10:34:23.288204 27011 net.cpp:425] layer_128_4_bn3 <- layer_128_4_conv2
I1014 10:34:23.288208 27011 net.cpp:386] layer_128_4_bn3 -> layer_128_4_conv2 (in-place)
I1014 10:34:23.288316 27011 net.cpp:141] Setting up layer_128_4_bn3
I1014 10:34:23.288318 27011 net.cpp:148] Top shape: 1 128 28 28 (100352)
I1014 10:34:23.288321 27011 net.cpp:156] Memory required for data: 159158276
I1014 10:34:23.288326 27011 layer_factory.hpp:77] Creating layer layer_128_4_scale3
I1014 10:34:23.288329 27011 net.cpp:91] Creating Layer layer_128_4_scale3
I1014 10:34:23.288331 27011 net.cpp:425] layer_128_4_scale3 <- layer_128_4_conv2
I1014 10:34:23.288334 27011 net.cpp:386] layer_128_4_scale3 -> layer_128_4_conv2 (in-place)
I1014 10:34:23.288364 27011 layer_factory.hpp:77] Creating layer layer_128_4_scale3
I1014 10:34:23.288429 27011 net.cpp:141] Setting up layer_128_4_scale3
I1014 10:34:23.288446 27011 net.cpp:148] Top shape: 1 128 28 28 (100352)
I1014 10:34:23.288449 27011 net.cpp:156] Memory required for data: 159559684
I1014 10:34:23.288452 27011 layer_factory.hpp:77] Creating layer layer_128_4_relu3
I1014 10:34:23.288468 27011 net.cpp:91] Creating Layer layer_128_4_relu3
I1014 10:34:23.288470 27011 net.cpp:425] layer_128_4_relu3 <- layer_128_4_conv2
I1014 10:34:23.288475 27011 net.cpp:386] layer_128_4_relu3 -> layer_128_4_conv2 (in-place)
I1014 10:34:23.288478 27011 net.cpp:141] Setting up layer_128_4_relu3
I1014 10:34:23.288481 27011 net.cpp:148] Top shape: 1 128 28 28 (100352)
I1014 10:34:23.288483 27011 net.cpp:156] Memory required for data: 159961092
I1014 10:34:23.288486 27011 layer_factory.hpp:77] Creating layer layer_128_4_conv3
I1014 10:34:23.288491 27011 net.cpp:91] Creating Layer layer_128_4_conv3
I1014 10:34:23.288493 27011 net.cpp:425] layer_128_4_conv3 <- layer_128_4_conv2
I1014 10:34:23.288497 27011 net.cpp:399] layer_128_4_conv3 -> layer_128_4_conv3
I1014 10:34:23.289417 27011 net.cpp:141] Setting up layer_128_4_conv3
I1014 10:34:23.289422 27011 net.cpp:148] Top shape: 1 512 28 28 (401408)
I1014 10:34:23.289423 27011 net.cpp:156] Memory required for data: 161566724
I1014 10:34:23.289427 27011 layer_factory.hpp:77] Creating layer layer_128_4_sum
I1014 10:34:23.289430 27011 net.cpp:91] Creating Layer layer_128_4_sum
I1014 10:34:23.289433 27011 net.cpp:425] layer_128_4_sum <- layer_128_4_conv3
I1014 10:34:23.289434 27011 net.cpp:425] layer_128_4_sum <- layer_128_3_sum_layer_128_3_sum_0_split_1
I1014 10:34:23.289438 27011 net.cpp:399] layer_128_4_sum -> layer_128_4_sum
I1014 10:34:23.289450 27011 net.cpp:141] Setting up layer_128_4_sum
I1014 10:34:23.289453 27011 net.cpp:148] Top shape: 1 512 28 28 (401408)
I1014 10:34:23.289455 27011 net.cpp:156] Memory required for data: 163172356
I1014 10:34:23.289458 27011 layer_factory.hpp:77] Creating layer layer_256_1_bn1
I1014 10:34:23.289460 27011 net.cpp:91] Creating Layer layer_256_1_bn1
I1014 10:34:23.289463 27011 net.cpp:425] layer_256_1_bn1 <- layer_128_4_sum
I1014 10:34:23.289466 27011 net.cpp:399] layer_256_1_bn1 -> layer_256_1_bn1
I1014 10:34:23.289577 27011 net.cpp:141] Setting up layer_256_1_bn1
I1014 10:34:23.289580 27011 net.cpp:148] Top shape: 1 512 28 28 (401408)
I1014 10:34:23.289582 27011 net.cpp:156] Memory required for data: 164777988
I1014 10:34:23.289587 27011 layer_factory.hpp:77] Creating layer layer_256_1_scale1
I1014 10:34:23.289590 27011 net.cpp:91] Creating Layer layer_256_1_scale1
I1014 10:34:23.289592 27011 net.cpp:425] layer_256_1_scale1 <- layer_256_1_bn1
I1014 10:34:23.289595 27011 net.cpp:386] layer_256_1_scale1 -> layer_256_1_bn1 (in-place)
I1014 10:34:23.289618 27011 layer_factory.hpp:77] Creating layer layer_256_1_scale1
I1014 10:34:23.289680 27011 net.cpp:141] Setting up layer_256_1_scale1
I1014 10:34:23.289682 27011 net.cpp:148] Top shape: 1 512 28 28 (401408)
I1014 10:34:23.289685 27011 net.cpp:156] Memory required for data: 166383620
I1014 10:34:23.289688 27011 layer_factory.hpp:77] Creating layer layer_256_1_relu1
I1014 10:34:23.289691 27011 net.cpp:91] Creating Layer layer_256_1_relu1
I1014 10:34:23.289693 27011 net.cpp:425] layer_256_1_relu1 <- layer_256_1_bn1
I1014 10:34:23.289696 27011 net.cpp:386] layer_256_1_relu1 -> layer_256_1_bn1 (in-place)
I1014 10:34:23.289700 27011 net.cpp:141] Setting up layer_256_1_relu1
I1014 10:34:23.289702 27011 net.cpp:148] Top shape: 1 512 28 28 (401408)
I1014 10:34:23.289705 27011 net.cpp:156] Memory required for data: 167989252
I1014 10:34:23.289706 27011 layer_factory.hpp:77] Creating layer layer_256_1_bn1_layer_256_1_relu1_0_split
I1014 10:34:23.289708 27011 net.cpp:91] Creating Layer layer_256_1_bn1_layer_256_1_relu1_0_split
I1014 10:34:23.289710 27011 net.cpp:425] layer_256_1_bn1_layer_256_1_relu1_0_split <- layer_256_1_bn1
I1014 10:34:23.289715 27011 net.cpp:399] layer_256_1_bn1_layer_256_1_relu1_0_split -> layer_256_1_bn1_layer_256_1_relu1_0_split_0
I1014 10:34:23.289723 27011 net.cpp:399] layer_256_1_bn1_layer_256_1_relu1_0_split -> layer_256_1_bn1_layer_256_1_relu1_0_split_1
I1014 10:34:23.289744 27011 net.cpp:141] Setting up layer_256_1_bn1_layer_256_1_relu1_0_split
I1014 10:34:23.289747 27011 net.cpp:148] Top shape: 1 512 28 28 (401408)
I1014 10:34:23.289750 27011 net.cpp:148] Top shape: 1 512 28 28 (401408)
I1014 10:34:23.289752 27011 net.cpp:156] Memory required for data: 171200516
I1014 10:34:23.289754 27011 layer_factory.hpp:77] Creating layer layer_256_1_conv1
I1014 10:34:23.289758 27011 net.cpp:91] Creating Layer layer_256_1_conv1
I1014 10:34:23.289760 27011 net.cpp:425] layer_256_1_conv1 <- layer_256_1_bn1_layer_256_1_relu1_0_split_0
I1014 10:34:23.289764 27011 net.cpp:399] layer_256_1_conv1 -> layer_256_1_conv1
I1014 10:34:23.291442 27011 net.cpp:141] Setting up layer_256_1_conv1
I1014 10:34:23.291447 27011 net.cpp:148] Top shape: 1 256 28 28 (200704)
I1014 10:34:23.291450 27011 net.cpp:156] Memory required for data: 172003332
I1014 10:34:23.291452 27011 layer_factory.hpp:77] Creating layer layer_256_1_bn2
I1014 10:34:23.291456 27011 net.cpp:91] Creating Layer layer_256_1_bn2
I1014 10:34:23.291458 27011 net.cpp:425] layer_256_1_bn2 <- layer_256_1_conv1
I1014 10:34:23.291462 27011 net.cpp:386] layer_256_1_bn2 -> layer_256_1_conv1 (in-place)
I1014 10:34:23.291599 27011 net.cpp:141] Setting up layer_256_1_bn2
I1014 10:34:23.291604 27011 net.cpp:148] Top shape: 1 256 28 28 (200704)
I1014 10:34:23.291605 27011 net.cpp:156] Memory required for data: 172806148
I1014 10:34:23.291610 27011 layer_factory.hpp:77] Creating layer layer_256_1_scale2
I1014 10:34:23.291612 27011 net.cpp:91] Creating Layer layer_256_1_scale2
I1014 10:34:23.291615 27011 net.cpp:425] layer_256_1_scale2 <- layer_256_1_conv1
I1014 10:34:23.291618 27011 net.cpp:386] layer_256_1_scale2 -> layer_256_1_conv1 (in-place)
I1014 10:34:23.291641 27011 layer_factory.hpp:77] Creating layer layer_256_1_scale2
I1014 10:34:23.291702 27011 net.cpp:141] Setting up layer_256_1_scale2
I1014 10:34:23.291707 27011 net.cpp:148] Top shape: 1 256 28 28 (200704)
I1014 10:34:23.291708 27011 net.cpp:156] Memory required for data: 173608964
I1014 10:34:23.291712 27011 layer_factory.hpp:77] Creating layer layer_256_1_relu2
I1014 10:34:23.291729 27011 net.cpp:91] Creating Layer layer_256_1_relu2
I1014 10:34:23.291731 27011 net.cpp:425] layer_256_1_relu2 <- layer_256_1_conv1
I1014 10:34:23.291734 27011 net.cpp:386] layer_256_1_relu2 -> layer_256_1_conv1 (in-place)
I1014 10:34:23.291751 27011 net.cpp:141] Setting up layer_256_1_relu2
I1014 10:34:23.291754 27011 net.cpp:148] Top shape: 1 256 28 28 (200704)
I1014 10:34:23.291756 27011 net.cpp:156] Memory required for data: 174411780
I1014 10:34:23.291759 27011 layer_factory.hpp:77] Creating layer layer_256_1_conv2
I1014 10:34:23.291776 27011 net.cpp:91] Creating Layer layer_256_1_conv2
I1014 10:34:23.291779 27011 net.cpp:425] layer_256_1_conv2 <- layer_256_1_conv1
I1014 10:34:23.291782 27011 net.cpp:399] layer_256_1_conv2 -> layer_256_1_conv2
I1014 10:34:23.299477 27011 net.cpp:141] Setting up layer_256_1_conv2
I1014 10:34:23.299484 27011 net.cpp:148] Top shape: 1 256 14 14 (50176)
I1014 10:34:23.299486 27011 net.cpp:156] Memory required for data: 174612484
I1014 10:34:23.299489 27011 layer_factory.hpp:77] Creating layer layer_256_1_bn3
I1014 10:34:23.299494 27011 net.cpp:91] Creating Layer layer_256_1_bn3
I1014 10:34:23.299496 27011 net.cpp:425] layer_256_1_bn3 <- layer_256_1_conv2
I1014 10:34:23.299500 27011 net.cpp:386] layer_256_1_bn3 -> layer_256_1_conv2 (in-place)
I1014 10:34:23.299609 27011 net.cpp:141] Setting up layer_256_1_bn3
I1014 10:34:23.299613 27011 net.cpp:148] Top shape: 1 256 14 14 (50176)
I1014 10:34:23.299614 27011 net.cpp:156] Memory required for data: 174813188
I1014 10:34:23.299619 27011 layer_factory.hpp:77] Creating layer layer_256_1_scale3
I1014 10:34:23.299623 27011 net.cpp:91] Creating Layer layer_256_1_scale3
I1014 10:34:23.299625 27011 net.cpp:425] layer_256_1_scale3 <- layer_256_1_conv2
I1014 10:34:23.299635 27011 net.cpp:386] layer_256_1_scale3 -> layer_256_1_conv2 (in-place)
I1014 10:34:23.299659 27011 layer_factory.hpp:77] Creating layer layer_256_1_scale3
I1014 10:34:23.299717 27011 net.cpp:141] Setting up layer_256_1_scale3
I1014 10:34:23.299721 27011 net.cpp:148] Top shape: 1 256 14 14 (50176)
I1014 10:34:23.299723 27011 net.cpp:156] Memory required for data: 175013892
I1014 10:34:23.299726 27011 layer_factory.hpp:77] Creating layer layer_256_1_relu3
I1014 10:34:23.299731 27011 net.cpp:91] Creating Layer layer_256_1_relu3
I1014 10:34:23.299732 27011 net.cpp:425] layer_256_1_relu3 <- layer_256_1_conv2
I1014 10:34:23.299736 27011 net.cpp:386] layer_256_1_relu3 -> layer_256_1_conv2 (in-place)
I1014 10:34:23.299739 27011 net.cpp:141] Setting up layer_256_1_relu3
I1014 10:34:23.299741 27011 net.cpp:148] Top shape: 1 256 14 14 (50176)
I1014 10:34:23.299743 27011 net.cpp:156] Memory required for data: 175214596
I1014 10:34:23.299746 27011 layer_factory.hpp:77] Creating layer layer_256_1_conv3
I1014 10:34:23.299751 27011 net.cpp:91] Creating Layer layer_256_1_conv3
I1014 10:34:23.299753 27011 net.cpp:425] layer_256_1_conv3 <- layer_256_1_conv2
I1014 10:34:23.299758 27011 net.cpp:399] layer_256_1_conv3 -> layer_256_1_conv3
I1014 10:34:23.303270 27011 net.cpp:141] Setting up layer_256_1_conv3
I1014 10:34:23.303277 27011 net.cpp:148] Top shape: 1 1024 14 14 (200704)
I1014 10:34:23.303279 27011 net.cpp:156] Memory required for data: 176017412
I1014 10:34:23.303282 27011 layer_factory.hpp:77] Creating layer layer_256_1_conv_expand
I1014 10:34:23.303289 27011 net.cpp:91] Creating Layer layer_256_1_conv_expand
I1014 10:34:23.303292 27011 net.cpp:425] layer_256_1_conv_expand <- layer_256_1_bn1_layer_256_1_relu1_0_split_1
I1014 10:34:23.303297 27011 net.cpp:399] layer_256_1_conv_expand -> layer_256_1_conv_expand
I1014 10:34:23.310071 27011 net.cpp:141] Setting up layer_256_1_conv_expand
I1014 10:34:23.310078 27011 net.cpp:148] Top shape: 1 1024 14 14 (200704)
I1014 10:34:23.310081 27011 net.cpp:156] Memory required for data: 176820228
I1014 10:34:23.310083 27011 layer_factory.hpp:77] Creating layer layer_256_1_sum
I1014 10:34:23.310087 27011 net.cpp:91] Creating Layer layer_256_1_sum
I1014 10:34:23.310091 27011 net.cpp:425] layer_256_1_sum <- layer_256_1_conv3
I1014 10:34:23.310093 27011 net.cpp:425] layer_256_1_sum <- layer_256_1_conv_expand
I1014 10:34:23.310096 27011 net.cpp:399] layer_256_1_sum -> layer_256_1_sum
I1014 10:34:23.310111 27011 net.cpp:141] Setting up layer_256_1_sum
I1014 10:34:23.310113 27011 net.cpp:148] Top shape: 1 1024 14 14 (200704)
I1014 10:34:23.310115 27011 net.cpp:156] Memory required for data: 177623044
I1014 10:34:23.310117 27011 layer_factory.hpp:77] Creating layer layer_256_1_sum_layer_256_1_sum_0_split
I1014 10:34:23.310120 27011 net.cpp:91] Creating Layer layer_256_1_sum_layer_256_1_sum_0_split
I1014 10:34:23.310123 27011 net.cpp:425] layer_256_1_sum_layer_256_1_sum_0_split <- layer_256_1_sum
I1014 10:34:23.310127 27011 net.cpp:399] layer_256_1_sum_layer_256_1_sum_0_split -> layer_256_1_sum_layer_256_1_sum_0_split_0
I1014 10:34:23.310130 27011 net.cpp:399] layer_256_1_sum_layer_256_1_sum_0_split -> layer_256_1_sum_layer_256_1_sum_0_split_1
I1014 10:34:23.310155 27011 net.cpp:141] Setting up layer_256_1_sum_layer_256_1_sum_0_split
I1014 10:34:23.310158 27011 net.cpp:148] Top shape: 1 1024 14 14 (200704)
I1014 10:34:23.310161 27011 net.cpp:148] Top shape: 1 1024 14 14 (200704)
I1014 10:34:23.310163 27011 net.cpp:156] Memory required for data: 179228676
I1014 10:34:23.310165 27011 layer_factory.hpp:77] Creating layer layer_256_2_bn1
I1014 10:34:23.310169 27011 net.cpp:91] Creating Layer layer_256_2_bn1
I1014 10:34:23.310171 27011 net.cpp:425] layer_256_2_bn1 <- layer_256_1_sum_layer_256_1_sum_0_split_0
I1014 10:34:23.310175 27011 net.cpp:399] layer_256_2_bn1 -> layer_256_2_bn1
I1014 10:34:23.310295 27011 net.cpp:141] Setting up layer_256_2_bn1
I1014 10:34:23.310299 27011 net.cpp:148] Top shape: 1 1024 14 14 (200704)
I1014 10:34:23.310302 27011 net.cpp:156] Memory required for data: 180031492
I1014 10:34:23.310312 27011 layer_factory.hpp:77] Creating layer layer_256_2_scale1
I1014 10:34:23.310317 27011 net.cpp:91] Creating Layer layer_256_2_scale1
I1014 10:34:23.310318 27011 net.cpp:425] layer_256_2_scale1 <- layer_256_2_bn1
I1014 10:34:23.310322 27011 net.cpp:386] layer_256_2_scale1 -> layer_256_2_bn1 (in-place)
I1014 10:34:23.310346 27011 layer_factory.hpp:77] Creating layer layer_256_2_scale1
I1014 10:34:23.310410 27011 net.cpp:141] Setting up layer_256_2_scale1
I1014 10:34:23.310413 27011 net.cpp:148] Top shape: 1 1024 14 14 (200704)
I1014 10:34:23.310415 27011 net.cpp:156] Memory required for data: 180834308
I1014 10:34:23.310420 27011 layer_factory.hpp:77] Creating layer layer_256_2_relu1
I1014 10:34:23.310423 27011 net.cpp:91] Creating Layer layer_256_2_relu1
I1014 10:34:23.310425 27011 net.cpp:425] layer_256_2_relu1 <- layer_256_2_bn1
I1014 10:34:23.310428 27011 net.cpp:386] layer_256_2_relu1 -> layer_256_2_bn1 (in-place)
I1014 10:34:23.310431 27011 net.cpp:141] Setting up layer_256_2_relu1
I1014 10:34:23.310434 27011 net.cpp:148] Top shape: 1 1024 14 14 (200704)
I1014 10:34:23.310436 27011 net.cpp:156] Memory required for data: 181637124
I1014 10:34:23.310438 27011 layer_factory.hpp:77] Creating layer layer_256_2_conv1
I1014 10:34:23.310444 27011 net.cpp:91] Creating Layer layer_256_2_conv1
I1014 10:34:23.310446 27011 net.cpp:425] layer_256_2_conv1 <- layer_256_2_bn1
I1014 10:34:23.310451 27011 net.cpp:399] layer_256_2_conv1 -> layer_256_2_conv1
I1014 10:34:23.313952 27011 net.cpp:141] Setting up layer_256_2_conv1
I1014 10:34:23.313959 27011 net.cpp:148] Top shape: 1 256 14 14 (50176)
I1014 10:34:23.313961 27011 net.cpp:156] Memory required for data: 181837828
I1014 10:34:23.313964 27011 layer_factory.hpp:77] Creating layer layer_256_2_bn2
I1014 10:34:23.313969 27011 net.cpp:91] Creating Layer layer_256_2_bn2
I1014 10:34:23.313971 27011 net.cpp:425] layer_256_2_bn2 <- layer_256_2_conv1
I1014 10:34:23.313976 27011 net.cpp:386] layer_256_2_bn2 -> layer_256_2_conv1 (in-place)
I1014 10:34:23.314080 27011 net.cpp:141] Setting up layer_256_2_bn2
I1014 10:34:23.314085 27011 net.cpp:148] Top shape: 1 256 14 14 (50176)
I1014 10:34:23.314086 27011 net.cpp:156] Memory required for data: 182038532
I1014 10:34:23.314090 27011 layer_factory.hpp:77] Creating layer layer_256_2_scale2
I1014 10:34:23.314095 27011 net.cpp:91] Creating Layer layer_256_2_scale2
I1014 10:34:23.314096 27011 net.cpp:425] layer_256_2_scale2 <- layer_256_2_conv1
I1014 10:34:23.314100 27011 net.cpp:386] layer_256_2_scale2 -> layer_256_2_conv1 (in-place)
I1014 10:34:23.314121 27011 layer_factory.hpp:77] Creating layer layer_256_2_scale2
I1014 10:34:23.314185 27011 net.cpp:141] Setting up layer_256_2_scale2
I1014 10:34:23.314188 27011 net.cpp:148] Top shape: 1 256 14 14 (50176)
I1014 10:34:23.314190 27011 net.cpp:156] Memory required for data: 182239236
I1014 10:34:23.314194 27011 layer_factory.hpp:77] Creating layer layer_256_2_relu2
I1014 10:34:23.314198 27011 net.cpp:91] Creating Layer layer_256_2_relu2
I1014 10:34:23.314199 27011 net.cpp:425] layer_256_2_relu2 <- layer_256_2_conv1
I1014 10:34:23.314203 27011 net.cpp:386] layer_256_2_relu2 -> layer_256_2_conv1 (in-place)
I1014 10:34:23.314206 27011 net.cpp:141] Setting up layer_256_2_relu2
I1014 10:34:23.314209 27011 net.cpp:148] Top shape: 1 256 14 14 (50176)
I1014 10:34:23.314211 27011 net.cpp:156] Memory required for data: 182439940
I1014 10:34:23.314213 27011 layer_factory.hpp:77] Creating layer layer_256_2_conv2
I1014 10:34:23.314226 27011 net.cpp:91] Creating Layer layer_256_2_conv2
I1014 10:34:23.314229 27011 net.cpp:425] layer_256_2_conv2 <- layer_256_2_conv1
I1014 10:34:23.314234 27011 net.cpp:399] layer_256_2_conv2 -> layer_256_2_conv2
I1014 10:34:23.321869 27011 net.cpp:141] Setting up layer_256_2_conv2
I1014 10:34:23.321877 27011 net.cpp:148] Top shape: 1 256 14 14 (50176)
I1014 10:34:23.321878 27011 net.cpp:156] Memory required for data: 182640644
I1014 10:34:23.321882 27011 layer_factory.hpp:77] Creating layer layer_256_2_bn3
I1014 10:34:23.321888 27011 net.cpp:91] Creating Layer layer_256_2_bn3
I1014 10:34:23.321897 27011 net.cpp:425] layer_256_2_bn3 <- layer_256_2_conv2
I1014 10:34:23.321900 27011 net.cpp:386] layer_256_2_bn3 -> layer_256_2_conv2 (in-place)
I1014 10:34:23.322036 27011 net.cpp:141] Setting up layer_256_2_bn3
I1014 10:34:23.322039 27011 net.cpp:148] Top shape: 1 256 14 14 (50176)
I1014 10:34:23.322041 27011 net.cpp:156] Memory required for data: 182841348
I1014 10:34:23.322046 27011 layer_factory.hpp:77] Creating layer layer_256_2_scale3
I1014 10:34:23.322051 27011 net.cpp:91] Creating Layer layer_256_2_scale3
I1014 10:34:23.322052 27011 net.cpp:425] layer_256_2_scale3 <- layer_256_2_conv2
I1014 10:34:23.322055 27011 net.cpp:386] layer_256_2_scale3 -> layer_256_2_conv2 (in-place)
I1014 10:34:23.322077 27011 layer_factory.hpp:77] Creating layer layer_256_2_scale3
I1014 10:34:23.322137 27011 net.cpp:141] Setting up layer_256_2_scale3
I1014 10:34:23.322141 27011 net.cpp:148] Top shape: 1 256 14 14 (50176)
I1014 10:34:23.322144 27011 net.cpp:156] Memory required for data: 183042052
I1014 10:34:23.322146 27011 layer_factory.hpp:77] Creating layer layer_256_2_relu3
I1014 10:34:23.322150 27011 net.cpp:91] Creating Layer layer_256_2_relu3
I1014 10:34:23.322152 27011 net.cpp:425] layer_256_2_relu3 <- layer_256_2_conv2
I1014 10:34:23.322155 27011 net.cpp:386] layer_256_2_relu3 -> layer_256_2_conv2 (in-place)
I1014 10:34:23.322159 27011 net.cpp:141] Setting up layer_256_2_relu3
I1014 10:34:23.322161 27011 net.cpp:148] Top shape: 1 256 14 14 (50176)
I1014 10:34:23.322163 27011 net.cpp:156] Memory required for data: 183242756
I1014 10:34:23.322165 27011 layer_factory.hpp:77] Creating layer layer_256_2_conv3
I1014 10:34:23.322170 27011 net.cpp:91] Creating Layer layer_256_2_conv3
I1014 10:34:23.322173 27011 net.cpp:425] layer_256_2_conv3 <- layer_256_2_conv2
I1014 10:34:23.322177 27011 net.cpp:399] layer_256_2_conv3 -> layer_256_2_conv3
I1014 10:34:23.325573 27011 net.cpp:141] Setting up layer_256_2_conv3
I1014 10:34:23.325582 27011 net.cpp:148] Top shape: 1 1024 14 14 (200704)
I1014 10:34:23.325583 27011 net.cpp:156] Memory required for data: 184045572
I1014 10:34:23.325587 27011 layer_factory.hpp:77] Creating layer layer_256_2_sum
I1014 10:34:23.325590 27011 net.cpp:91] Creating Layer layer_256_2_sum
I1014 10:34:23.325592 27011 net.cpp:425] layer_256_2_sum <- layer_256_2_conv3
I1014 10:34:23.325595 27011 net.cpp:425] layer_256_2_sum <- layer_256_1_sum_layer_256_1_sum_0_split_1
I1014 10:34:23.325598 27011 net.cpp:399] layer_256_2_sum -> layer_256_2_sum
I1014 10:34:23.325626 27011 net.cpp:141] Setting up layer_256_2_sum
I1014 10:34:23.325630 27011 net.cpp:148] Top shape: 1 1024 14 14 (200704)
I1014 10:34:23.325633 27011 net.cpp:156] Memory required for data: 184848388
I1014 10:34:23.325634 27011 layer_factory.hpp:77] Creating layer layer_256_2_sum_layer_256_2_sum_0_split
I1014 10:34:23.325652 27011 net.cpp:91] Creating Layer layer_256_2_sum_layer_256_2_sum_0_split
I1014 10:34:23.325655 27011 net.cpp:425] layer_256_2_sum_layer_256_2_sum_0_split <- layer_256_2_sum
I1014 10:34:23.325659 27011 net.cpp:399] layer_256_2_sum_layer_256_2_sum_0_split -> layer_256_2_sum_layer_256_2_sum_0_split_0
I1014 10:34:23.325662 27011 net.cpp:399] layer_256_2_sum_layer_256_2_sum_0_split -> layer_256_2_sum_layer_256_2_sum_0_split_1
I1014 10:34:23.325681 27011 net.cpp:141] Setting up layer_256_2_sum_layer_256_2_sum_0_split
I1014 10:34:23.325685 27011 net.cpp:148] Top shape: 1 1024 14 14 (200704)
I1014 10:34:23.325687 27011 net.cpp:148] Top shape: 1 1024 14 14 (200704)
I1014 10:34:23.325690 27011 net.cpp:156] Memory required for data: 186454020
I1014 10:34:23.325691 27011 layer_factory.hpp:77] Creating layer layer_256_3_bn1
I1014 10:34:23.325695 27011 net.cpp:91] Creating Layer layer_256_3_bn1
I1014 10:34:23.325697 27011 net.cpp:425] layer_256_3_bn1 <- layer_256_2_sum_layer_256_2_sum_0_split_0
I1014 10:34:23.325700 27011 net.cpp:399] layer_256_3_bn1 -> layer_256_3_bn1
I1014 10:34:23.325831 27011 net.cpp:141] Setting up layer_256_3_bn1
I1014 10:34:23.325835 27011 net.cpp:148] Top shape: 1 1024 14 14 (200704)
I1014 10:34:23.325860 27011 net.cpp:156] Memory required for data: 187256836
I1014 10:34:23.325865 27011 layer_factory.hpp:77] Creating layer layer_256_3_scale1
I1014 10:34:23.325868 27011 net.cpp:91] Creating Layer layer_256_3_scale1
I1014 10:34:23.325870 27011 net.cpp:425] layer_256_3_scale1 <- layer_256_3_bn1
I1014 10:34:23.325875 27011 net.cpp:386] layer_256_3_scale1 -> layer_256_3_bn1 (in-place)
I1014 10:34:23.325923 27011 layer_factory.hpp:77] Creating layer layer_256_3_scale1
I1014 10:34:23.326015 27011 net.cpp:141] Setting up layer_256_3_scale1
I1014 10:34:23.326019 27011 net.cpp:148] Top shape: 1 1024 14 14 (200704)
I1014 10:34:23.326020 27011 net.cpp:156] Memory required for data: 188059652
I1014 10:34:23.326025 27011 layer_factory.hpp:77] Creating layer layer_256_3_relu1
I1014 10:34:23.326027 27011 net.cpp:91] Creating Layer layer_256_3_relu1
I1014 10:34:23.326030 27011 net.cpp:425] layer_256_3_relu1 <- layer_256_3_bn1
I1014 10:34:23.326032 27011 net.cpp:386] layer_256_3_relu1 -> layer_256_3_bn1 (in-place)
I1014 10:34:23.326035 27011 net.cpp:141] Setting up layer_256_3_relu1
I1014 10:34:23.326038 27011 net.cpp:148] Top shape: 1 1024 14 14 (200704)
I1014 10:34:23.326040 27011 net.cpp:156] Memory required for data: 188862468
I1014 10:34:23.326042 27011 layer_factory.hpp:77] Creating layer layer_256_3_conv1
I1014 10:34:23.326047 27011 net.cpp:91] Creating Layer layer_256_3_conv1
I1014 10:34:23.326050 27011 net.cpp:425] layer_256_3_conv1 <- layer_256_3_bn1
I1014 10:34:23.326055 27011 net.cpp:399] layer_256_3_conv1 -> layer_256_3_conv1
I1014 10:34:23.329648 27011 net.cpp:141] Setting up layer_256_3_conv1
I1014 10:34:23.329655 27011 net.cpp:148] Top shape: 1 256 14 14 (50176)
I1014 10:34:23.329658 27011 net.cpp:156] Memory required for data: 189063172
I1014 10:34:23.329660 27011 layer_factory.hpp:77] Creating layer layer_256_3_bn2
I1014 10:34:23.329665 27011 net.cpp:91] Creating Layer layer_256_3_bn2
I1014 10:34:23.329668 27011 net.cpp:425] layer_256_3_bn2 <- layer_256_3_conv1
I1014 10:34:23.329670 27011 net.cpp:386] layer_256_3_bn2 -> layer_256_3_conv1 (in-place)
I1014 10:34:23.329838 27011 net.cpp:141] Setting up layer_256_3_bn2
I1014 10:34:23.329841 27011 net.cpp:148] Top shape: 1 256 14 14 (50176)
I1014 10:34:23.329843 27011 net.cpp:156] Memory required for data: 189263876
I1014 10:34:23.329848 27011 layer_factory.hpp:77] Creating layer layer_256_3_scale2
I1014 10:34:23.329851 27011 net.cpp:91] Creating Layer layer_256_3_scale2
I1014 10:34:23.329854 27011 net.cpp:425] layer_256_3_scale2 <- layer_256_3_conv1
I1014 10:34:23.329859 27011 net.cpp:386] layer_256_3_scale2 -> layer_256_3_conv1 (in-place)
I1014 10:34:23.329879 27011 layer_factory.hpp:77] Creating layer layer_256_3_scale2
I1014 10:34:23.329941 27011 net.cpp:141] Setting up layer_256_3_scale2
I1014 10:34:23.329946 27011 net.cpp:148] Top shape: 1 256 14 14 (50176)
I1014 10:34:23.329947 27011 net.cpp:156] Memory required for data: 189464580
I1014 10:34:23.329951 27011 layer_factory.hpp:77] Creating layer layer_256_3_relu2
I1014 10:34:23.329953 27011 net.cpp:91] Creating Layer layer_256_3_relu2
I1014 10:34:23.329955 27011 net.cpp:425] layer_256_3_relu2 <- layer_256_3_conv1
I1014 10:34:23.329958 27011 net.cpp:386] layer_256_3_relu2 -> layer_256_3_conv1 (in-place)
I1014 10:34:23.329962 27011 net.cpp:141] Setting up layer_256_3_relu2
I1014 10:34:23.329964 27011 net.cpp:148] Top shape: 1 256 14 14 (50176)
I1014 10:34:23.329967 27011 net.cpp:156] Memory required for data: 189665284
I1014 10:34:23.329968 27011 layer_factory.hpp:77] Creating layer layer_256_3_conv2
I1014 10:34:23.329974 27011 net.cpp:91] Creating Layer layer_256_3_conv2
I1014 10:34:23.329977 27011 net.cpp:425] layer_256_3_conv2 <- layer_256_3_conv1
I1014 10:34:23.329982 27011 net.cpp:399] layer_256_3_conv2 -> layer_256_3_conv2
I1014 10:34:23.337829 27011 net.cpp:141] Setting up layer_256_3_conv2
I1014 10:34:23.337837 27011 net.cpp:148] Top shape: 1 256 14 14 (50176)
I1014 10:34:23.337839 27011 net.cpp:156] Memory required for data: 189865988
I1014 10:34:23.337844 27011 layer_factory.hpp:77] Creating layer layer_256_3_bn3
I1014 10:34:23.337854 27011 net.cpp:91] Creating Layer layer_256_3_bn3
I1014 10:34:23.337857 27011 net.cpp:425] layer_256_3_bn3 <- layer_256_3_conv2
I1014 10:34:23.337862 27011 net.cpp:386] layer_256_3_bn3 -> layer_256_3_conv2 (in-place)
I1014 10:34:23.337972 27011 net.cpp:141] Setting up layer_256_3_bn3
I1014 10:34:23.337976 27011 net.cpp:148] Top shape: 1 256 14 14 (50176)
I1014 10:34:23.337977 27011 net.cpp:156] Memory required for data: 190066692
I1014 10:34:23.337982 27011 layer_factory.hpp:77] Creating layer layer_256_3_scale3
I1014 10:34:23.337985 27011 net.cpp:91] Creating Layer layer_256_3_scale3
I1014 10:34:23.337988 27011 net.cpp:425] layer_256_3_scale3 <- layer_256_3_conv2
I1014 10:34:23.337992 27011 net.cpp:386] layer_256_3_scale3 -> layer_256_3_conv2 (in-place)
I1014 10:34:23.338014 27011 layer_factory.hpp:77] Creating layer layer_256_3_scale3
I1014 10:34:23.338076 27011 net.cpp:141] Setting up layer_256_3_scale3
I1014 10:34:23.338080 27011 net.cpp:148] Top shape: 1 256 14 14 (50176)
I1014 10:34:23.338083 27011 net.cpp:156] Memory required for data: 190267396
I1014 10:34:23.338086 27011 layer_factory.hpp:77] Creating layer layer_256_3_relu3
I1014 10:34:23.338089 27011 net.cpp:91] Creating Layer layer_256_3_relu3
I1014 10:34:23.338091 27011 net.cpp:425] layer_256_3_relu3 <- layer_256_3_conv2
I1014 10:34:23.338094 27011 net.cpp:386] layer_256_3_relu3 -> layer_256_3_conv2 (in-place)
I1014 10:34:23.338098 27011 net.cpp:141] Setting up layer_256_3_relu3
I1014 10:34:23.338100 27011 net.cpp:148] Top shape: 1 256 14 14 (50176)
I1014 10:34:23.338102 27011 net.cpp:156] Memory required for data: 190468100
I1014 10:34:23.338104 27011 layer_factory.hpp:77] Creating layer layer_256_3_conv3
I1014 10:34:23.338110 27011 net.cpp:91] Creating Layer layer_256_3_conv3
I1014 10:34:23.338112 27011 net.cpp:425] layer_256_3_conv3 <- layer_256_3_conv2
I1014 10:34:23.338116 27011 net.cpp:399] layer_256_3_conv3 -> layer_256_3_conv3
I1014 10:34:23.341550 27011 net.cpp:141] Setting up layer_256_3_conv3
I1014 10:34:23.341557 27011 net.cpp:148] Top shape: 1 1024 14 14 (200704)
I1014 10:34:23.341559 27011 net.cpp:156] Memory required for data: 191270916
I1014 10:34:23.341562 27011 layer_factory.hpp:77] Creating layer layer_256_3_sum
I1014 10:34:23.341567 27011 net.cpp:91] Creating Layer layer_256_3_sum
I1014 10:34:23.341569 27011 net.cpp:425] layer_256_3_sum <- layer_256_3_conv3
I1014 10:34:23.341572 27011 net.cpp:425] layer_256_3_sum <- layer_256_2_sum_layer_256_2_sum_0_split_1
I1014 10:34:23.341575 27011 net.cpp:399] layer_256_3_sum -> layer_256_3_sum
I1014 10:34:23.341590 27011 net.cpp:141] Setting up layer_256_3_sum
I1014 10:34:23.341594 27011 net.cpp:148] Top shape: 1 1024 14 14 (200704)
I1014 10:34:23.341596 27011 net.cpp:156] Memory required for data: 192073732
I1014 10:34:23.341598 27011 layer_factory.hpp:77] Creating layer layer_256_3_sum_layer_256_3_sum_0_split
I1014 10:34:23.341601 27011 net.cpp:91] Creating Layer layer_256_3_sum_layer_256_3_sum_0_split
I1014 10:34:23.341603 27011 net.cpp:425] layer_256_3_sum_layer_256_3_sum_0_split <- layer_256_3_sum
I1014 10:34:23.341606 27011 net.cpp:399] layer_256_3_sum_layer_256_3_sum_0_split -> layer_256_3_sum_layer_256_3_sum_0_split_0
I1014 10:34:23.341610 27011 net.cpp:399] layer_256_3_sum_layer_256_3_sum_0_split -> layer_256_3_sum_layer_256_3_sum_0_split_1
I1014 10:34:23.341631 27011 net.cpp:141] Setting up layer_256_3_sum_layer_256_3_sum_0_split
I1014 10:34:23.341634 27011 net.cpp:148] Top shape: 1 1024 14 14 (200704)
I1014 10:34:23.341637 27011 net.cpp:148] Top shape: 1 1024 14 14 (200704)
I1014 10:34:23.341639 27011 net.cpp:156] Memory required for data: 193679364
I1014 10:34:23.341641 27011 layer_factory.hpp:77] Creating layer layer_256_4_bn1
I1014 10:34:23.341645 27011 net.cpp:91] Creating Layer layer_256_4_bn1
I1014 10:34:23.341647 27011 net.cpp:425] layer_256_4_bn1 <- layer_256_3_sum_layer_256_3_sum_0_split_0
I1014 10:34:23.341650 27011 net.cpp:399] layer_256_4_bn1 -> layer_256_4_bn1
I1014 10:34:23.341769 27011 net.cpp:141] Setting up layer_256_4_bn1
I1014 10:34:23.341780 27011 net.cpp:148] Top shape: 1 1024 14 14 (200704)
I1014 10:34:23.341783 27011 net.cpp:156] Memory required for data: 194482180
I1014 10:34:23.341786 27011 layer_factory.hpp:77] Creating layer layer_256_4_scale1
I1014 10:34:23.341791 27011 net.cpp:91] Creating Layer layer_256_4_scale1
I1014 10:34:23.341794 27011 net.cpp:425] layer_256_4_scale1 <- layer_256_4_bn1
I1014 10:34:23.341796 27011 net.cpp:386] layer_256_4_scale1 -> layer_256_4_bn1 (in-place)
I1014 10:34:23.341820 27011 layer_factory.hpp:77] Creating layer layer_256_4_scale1
I1014 10:34:23.341887 27011 net.cpp:141] Setting up layer_256_4_scale1
I1014 10:34:23.341892 27011 net.cpp:148] Top shape: 1 1024 14 14 (200704)
I1014 10:34:23.341893 27011 net.cpp:156] Memory required for data: 195284996
I1014 10:34:23.341897 27011 layer_factory.hpp:77] Creating layer layer_256_4_relu1
I1014 10:34:23.341900 27011 net.cpp:91] Creating Layer layer_256_4_relu1
I1014 10:34:23.341903 27011 net.cpp:425] layer_256_4_relu1 <- layer_256_4_bn1
I1014 10:34:23.341907 27011 net.cpp:386] layer_256_4_relu1 -> layer_256_4_bn1 (in-place)
I1014 10:34:23.341909 27011 net.cpp:141] Setting up layer_256_4_relu1
I1014 10:34:23.341912 27011 net.cpp:148] Top shape: 1 1024 14 14 (200704)
I1014 10:34:23.341913 27011 net.cpp:156] Memory required for data: 196087812
I1014 10:34:23.341915 27011 layer_factory.hpp:77] Creating layer layer_256_4_conv1
I1014 10:34:23.341922 27011 net.cpp:91] Creating Layer layer_256_4_conv1
I1014 10:34:23.341923 27011 net.cpp:425] layer_256_4_conv1 <- layer_256_4_bn1
I1014 10:34:23.341928 27011 net.cpp:399] layer_256_4_conv1 -> layer_256_4_conv1
I1014 10:34:23.345440 27011 net.cpp:141] Setting up layer_256_4_conv1
I1014 10:34:23.345448 27011 net.cpp:148] Top shape: 1 256 14 14 (50176)
I1014 10:34:23.345450 27011 net.cpp:156] Memory required for data: 196288516
I1014 10:34:23.345453 27011 layer_factory.hpp:77] Creating layer layer_256_4_bn2
I1014 10:34:23.345458 27011 net.cpp:91] Creating Layer layer_256_4_bn2
I1014 10:34:23.345460 27011 net.cpp:425] layer_256_4_bn2 <- layer_256_4_conv1
I1014 10:34:23.345463 27011 net.cpp:386] layer_256_4_bn2 -> layer_256_4_conv1 (in-place)
I1014 10:34:23.345572 27011 net.cpp:141] Setting up layer_256_4_bn2
I1014 10:34:23.345577 27011 net.cpp:148] Top shape: 1 256 14 14 (50176)
I1014 10:34:23.345578 27011 net.cpp:156] Memory required for data: 196489220
I1014 10:34:23.345582 27011 layer_factory.hpp:77] Creating layer layer_256_4_scale2
I1014 10:34:23.345587 27011 net.cpp:91] Creating Layer layer_256_4_scale2
I1014 10:34:23.345589 27011 net.cpp:425] layer_256_4_scale2 <- layer_256_4_conv1
I1014 10:34:23.345592 27011 net.cpp:386] layer_256_4_scale2 -> layer_256_4_conv1 (in-place)
I1014 10:34:23.345615 27011 layer_factory.hpp:77] Creating layer layer_256_4_scale2
I1014 10:34:23.345677 27011 net.cpp:141] Setting up layer_256_4_scale2
I1014 10:34:23.345681 27011 net.cpp:148] Top shape: 1 256 14 14 (50176)
I1014 10:34:23.345684 27011 net.cpp:156] Memory required for data: 196689924
I1014 10:34:23.345686 27011 layer_factory.hpp:77] Creating layer layer_256_4_relu2
I1014 10:34:23.345691 27011 net.cpp:91] Creating Layer layer_256_4_relu2
I1014 10:34:23.345693 27011 net.cpp:425] layer_256_4_relu2 <- layer_256_4_conv1
I1014 10:34:23.345696 27011 net.cpp:386] layer_256_4_relu2 -> layer_256_4_conv1 (in-place)
I1014 10:34:23.345700 27011 net.cpp:141] Setting up layer_256_4_relu2
I1014 10:34:23.345702 27011 net.cpp:148] Top shape: 1 256 14 14 (50176)
I1014 10:34:23.345703 27011 net.cpp:156] Memory required for data: 196890628
I1014 10:34:23.345705 27011 layer_factory.hpp:77] Creating layer layer_256_4_conv2
I1014 10:34:23.345713 27011 net.cpp:91] Creating Layer layer_256_4_conv2
I1014 10:34:23.345715 27011 net.cpp:425] layer_256_4_conv2 <- layer_256_4_conv1
I1014 10:34:23.345719 27011 net.cpp:399] layer_256_4_conv2 -> layer_256_4_conv2
I1014 10:34:23.353842 27011 net.cpp:141] Setting up layer_256_4_conv2
I1014 10:34:23.353848 27011 net.cpp:148] Top shape: 1 256 14 14 (50176)
I1014 10:34:23.353850 27011 net.cpp:156] Memory required for data: 197091332
I1014 10:34:23.353863 27011 layer_factory.hpp:77] Creating layer layer_256_4_bn3
I1014 10:34:23.353866 27011 net.cpp:91] Creating Layer layer_256_4_bn3
I1014 10:34:23.353869 27011 net.cpp:425] layer_256_4_bn3 <- layer_256_4_conv2
I1014 10:34:23.353873 27011 net.cpp:386] layer_256_4_bn3 -> layer_256_4_conv2 (in-place)
I1014 10:34:23.353983 27011 net.cpp:141] Setting up layer_256_4_bn3
I1014 10:34:23.353987 27011 net.cpp:148] Top shape: 1 256 14 14 (50176)
I1014 10:34:23.353989 27011 net.cpp:156] Memory required for data: 197292036
I1014 10:34:23.353993 27011 layer_factory.hpp:77] Creating layer layer_256_4_scale3
I1014 10:34:23.354013 27011 net.cpp:91] Creating Layer layer_256_4_scale3
I1014 10:34:23.354015 27011 net.cpp:425] layer_256_4_scale3 <- layer_256_4_conv2
I1014 10:34:23.354019 27011 net.cpp:386] layer_256_4_scale3 -> layer_256_4_conv2 (in-place)
I1014 10:34:23.354043 27011 layer_factory.hpp:77] Creating layer layer_256_4_scale3
I1014 10:34:23.354132 27011 net.cpp:141] Setting up layer_256_4_scale3
I1014 10:34:23.354136 27011 net.cpp:148] Top shape: 1 256 14 14 (50176)
I1014 10:34:23.354138 27011 net.cpp:156] Memory required for data: 197492740
I1014 10:34:23.354141 27011 layer_factory.hpp:77] Creating layer layer_256_4_relu3
I1014 10:34:23.354146 27011 net.cpp:91] Creating Layer layer_256_4_relu3
I1014 10:34:23.354147 27011 net.cpp:425] layer_256_4_relu3 <- layer_256_4_conv2
I1014 10:34:23.354151 27011 net.cpp:386] layer_256_4_relu3 -> layer_256_4_conv2 (in-place)
I1014 10:34:23.354154 27011 net.cpp:141] Setting up layer_256_4_relu3
I1014 10:34:23.354156 27011 net.cpp:148] Top shape: 1 256 14 14 (50176)
I1014 10:34:23.354158 27011 net.cpp:156] Memory required for data: 197693444
I1014 10:34:23.354161 27011 layer_factory.hpp:77] Creating layer layer_256_4_conv3
I1014 10:34:23.354166 27011 net.cpp:91] Creating Layer layer_256_4_conv3
I1014 10:34:23.354168 27011 net.cpp:425] layer_256_4_conv3 <- layer_256_4_conv2
I1014 10:34:23.354172 27011 net.cpp:399] layer_256_4_conv3 -> layer_256_4_conv3
I1014 10:34:23.357611 27011 net.cpp:141] Setting up layer_256_4_conv3
I1014 10:34:23.357619 27011 net.cpp:148] Top shape: 1 1024 14 14 (200704)
I1014 10:34:23.357620 27011 net.cpp:156] Memory required for data: 198496260
I1014 10:34:23.357623 27011 layer_factory.hpp:77] Creating layer layer_256_4_sum
I1014 10:34:23.357627 27011 net.cpp:91] Creating Layer layer_256_4_sum
I1014 10:34:23.357630 27011 net.cpp:425] layer_256_4_sum <- layer_256_4_conv3
I1014 10:34:23.357633 27011 net.cpp:425] layer_256_4_sum <- layer_256_3_sum_layer_256_3_sum_0_split_1
I1014 10:34:23.357636 27011 net.cpp:399] layer_256_4_sum -> layer_256_4_sum
I1014 10:34:23.357650 27011 net.cpp:141] Setting up layer_256_4_sum
I1014 10:34:23.357655 27011 net.cpp:148] Top shape: 1 1024 14 14 (200704)
I1014 10:34:23.357656 27011 net.cpp:156] Memory required for data: 199299076
I1014 10:34:23.357658 27011 layer_factory.hpp:77] Creating layer layer_256_4_sum_layer_256_4_sum_0_split
I1014 10:34:23.357662 27011 net.cpp:91] Creating Layer layer_256_4_sum_layer_256_4_sum_0_split
I1014 10:34:23.357664 27011 net.cpp:425] layer_256_4_sum_layer_256_4_sum_0_split <- layer_256_4_sum
I1014 10:34:23.357667 27011 net.cpp:399] layer_256_4_sum_layer_256_4_sum_0_split -> layer_256_4_sum_layer_256_4_sum_0_split_0
I1014 10:34:23.357671 27011 net.cpp:399] layer_256_4_sum_layer_256_4_sum_0_split -> layer_256_4_sum_layer_256_4_sum_0_split_1
I1014 10:34:23.357692 27011 net.cpp:141] Setting up layer_256_4_sum_layer_256_4_sum_0_split
I1014 10:34:23.357697 27011 net.cpp:148] Top shape: 1 1024 14 14 (200704)
I1014 10:34:23.357698 27011 net.cpp:148] Top shape: 1 1024 14 14 (200704)
I1014 10:34:23.357700 27011 net.cpp:156] Memory required for data: 200904708
I1014 10:34:23.357702 27011 layer_factory.hpp:77] Creating layer layer_256_5_bn1
I1014 10:34:23.357707 27011 net.cpp:91] Creating Layer layer_256_5_bn1
I1014 10:34:23.357709 27011 net.cpp:425] layer_256_5_bn1 <- layer_256_4_sum_layer_256_4_sum_0_split_0
I1014 10:34:23.357712 27011 net.cpp:399] layer_256_5_bn1 -> layer_256_5_bn1
I1014 10:34:23.357838 27011 net.cpp:141] Setting up layer_256_5_bn1
I1014 10:34:23.357842 27011 net.cpp:148] Top shape: 1 1024 14 14 (200704)
I1014 10:34:23.357844 27011 net.cpp:156] Memory required for data: 201707524
I1014 10:34:23.357848 27011 layer_factory.hpp:77] Creating layer layer_256_5_scale1
I1014 10:34:23.357852 27011 net.cpp:91] Creating Layer layer_256_5_scale1
I1014 10:34:23.357856 27011 net.cpp:425] layer_256_5_scale1 <- layer_256_5_bn1
I1014 10:34:23.357861 27011 net.cpp:386] layer_256_5_scale1 -> layer_256_5_bn1 (in-place)
I1014 10:34:23.357882 27011 layer_factory.hpp:77] Creating layer layer_256_5_scale1
I1014 10:34:23.357978 27011 net.cpp:141] Setting up layer_256_5_scale1
I1014 10:34:23.357983 27011 net.cpp:148] Top shape: 1 1024 14 14 (200704)
I1014 10:34:23.357985 27011 net.cpp:156] Memory required for data: 202510340
I1014 10:34:23.357988 27011 layer_factory.hpp:77] Creating layer layer_256_5_relu1
I1014 10:34:23.357992 27011 net.cpp:91] Creating Layer layer_256_5_relu1
I1014 10:34:23.357995 27011 net.cpp:425] layer_256_5_relu1 <- layer_256_5_bn1
I1014 10:34:23.357997 27011 net.cpp:386] layer_256_5_relu1 -> layer_256_5_bn1 (in-place)
I1014 10:34:23.358000 27011 net.cpp:141] Setting up layer_256_5_relu1
I1014 10:34:23.358003 27011 net.cpp:148] Top shape: 1 1024 14 14 (200704)
I1014 10:34:23.358006 27011 net.cpp:156] Memory required for data: 203313156
I1014 10:34:23.358007 27011 layer_factory.hpp:77] Creating layer layer_256_5_conv1
I1014 10:34:23.358012 27011 net.cpp:91] Creating Layer layer_256_5_conv1
I1014 10:34:23.358016 27011 net.cpp:425] layer_256_5_conv1 <- layer_256_5_bn1
I1014 10:34:23.358019 27011 net.cpp:399] layer_256_5_conv1 -> layer_256_5_conv1
I1014 10:34:23.361546 27011 net.cpp:141] Setting up layer_256_5_conv1
I1014 10:34:23.361553 27011 net.cpp:148] Top shape: 1 256 14 14 (50176)
I1014 10:34:23.361557 27011 net.cpp:156] Memory required for data: 203513860
I1014 10:34:23.361559 27011 layer_factory.hpp:77] Creating layer layer_256_5_bn2
I1014 10:34:23.361563 27011 net.cpp:91] Creating Layer layer_256_5_bn2
I1014 10:34:23.361567 27011 net.cpp:425] layer_256_5_bn2 <- layer_256_5_conv1
I1014 10:34:23.361570 27011 net.cpp:386] layer_256_5_bn2 -> layer_256_5_conv1 (in-place)
I1014 10:34:23.361712 27011 net.cpp:141] Setting up layer_256_5_bn2
I1014 10:34:23.361716 27011 net.cpp:148] Top shape: 1 256 14 14 (50176)
I1014 10:34:23.361718 27011 net.cpp:156] Memory required for data: 203714564
I1014 10:34:23.361722 27011 layer_factory.hpp:77] Creating layer layer_256_5_scale2
I1014 10:34:23.361726 27011 net.cpp:91] Creating Layer layer_256_5_scale2
I1014 10:34:23.361728 27011 net.cpp:425] layer_256_5_scale2 <- layer_256_5_conv1
I1014 10:34:23.361732 27011 net.cpp:386] layer_256_5_scale2 -> layer_256_5_conv1 (in-place)
I1014 10:34:23.361754 27011 layer_factory.hpp:77] Creating layer layer_256_5_scale2
I1014 10:34:23.361820 27011 net.cpp:141] Setting up layer_256_5_scale2
I1014 10:34:23.361824 27011 net.cpp:148] Top shape: 1 256 14 14 (50176)
I1014 10:34:23.361826 27011 net.cpp:156] Memory required for data: 203915268
I1014 10:34:23.361830 27011 layer_factory.hpp:77] Creating layer layer_256_5_relu2
I1014 10:34:23.361835 27011 net.cpp:91] Creating Layer layer_256_5_relu2
I1014 10:34:23.361836 27011 net.cpp:425] layer_256_5_relu2 <- layer_256_5_conv1
I1014 10:34:23.361840 27011 net.cpp:386] layer_256_5_relu2 -> layer_256_5_conv1 (in-place)
I1014 10:34:23.361842 27011 net.cpp:141] Setting up layer_256_5_relu2
I1014 10:34:23.361845 27011 net.cpp:148] Top shape: 1 256 14 14 (50176)
I1014 10:34:23.361847 27011 net.cpp:156] Memory required for data: 204115972
I1014 10:34:23.361850 27011 layer_factory.hpp:77] Creating layer layer_256_5_conv2
I1014 10:34:23.361855 27011 net.cpp:91] Creating Layer layer_256_5_conv2
I1014 10:34:23.361857 27011 net.cpp:425] layer_256_5_conv2 <- layer_256_5_conv1
I1014 10:34:23.361861 27011 net.cpp:399] layer_256_5_conv2 -> layer_256_5_conv2
I1014 10:34:23.369374 27011 net.cpp:141] Setting up layer_256_5_conv2
I1014 10:34:23.369381 27011 net.cpp:148] Top shape: 1 256 14 14 (50176)
I1014 10:34:23.369391 27011 net.cpp:156] Memory required for data: 204316676
I1014 10:34:23.369395 27011 layer_factory.hpp:77] Creating layer layer_256_5_bn3
I1014 10:34:23.369400 27011 net.cpp:91] Creating Layer layer_256_5_bn3
I1014 10:34:23.369402 27011 net.cpp:425] layer_256_5_bn3 <- layer_256_5_conv2
I1014 10:34:23.369406 27011 net.cpp:386] layer_256_5_bn3 -> layer_256_5_conv2 (in-place)
I1014 10:34:23.369520 27011 net.cpp:141] Setting up layer_256_5_bn3
I1014 10:34:23.369524 27011 net.cpp:148] Top shape: 1 256 14 14 (50176)
I1014 10:34:23.369525 27011 net.cpp:156] Memory required for data: 204517380
I1014 10:34:23.369530 27011 layer_factory.hpp:77] Creating layer layer_256_5_scale3
I1014 10:34:23.369534 27011 net.cpp:91] Creating Layer layer_256_5_scale3
I1014 10:34:23.369536 27011 net.cpp:425] layer_256_5_scale3 <- layer_256_5_conv2
I1014 10:34:23.369539 27011 net.cpp:386] layer_256_5_scale3 -> layer_256_5_conv2 (in-place)
I1014 10:34:23.369562 27011 layer_factory.hpp:77] Creating layer layer_256_5_scale3
I1014 10:34:23.369624 27011 net.cpp:141] Setting up layer_256_5_scale3
I1014 10:34:23.369628 27011 net.cpp:148] Top shape: 1 256 14 14 (50176)
I1014 10:34:23.369631 27011 net.cpp:156] Memory required for data: 204718084
I1014 10:34:23.369633 27011 layer_factory.hpp:77] Creating layer layer_256_5_relu3
I1014 10:34:23.369637 27011 net.cpp:91] Creating Layer layer_256_5_relu3
I1014 10:34:23.369640 27011 net.cpp:425] layer_256_5_relu3 <- layer_256_5_conv2
I1014 10:34:23.369643 27011 net.cpp:386] layer_256_5_relu3 -> layer_256_5_conv2 (in-place)
I1014 10:34:23.369647 27011 net.cpp:141] Setting up layer_256_5_relu3
I1014 10:34:23.369649 27011 net.cpp:148] Top shape: 1 256 14 14 (50176)
I1014 10:34:23.369650 27011 net.cpp:156] Memory required for data: 204918788
I1014 10:34:23.369652 27011 layer_factory.hpp:77] Creating layer layer_256_5_conv3
I1014 10:34:23.369658 27011 net.cpp:91] Creating Layer layer_256_5_conv3
I1014 10:34:23.369660 27011 net.cpp:425] layer_256_5_conv3 <- layer_256_5_conv2
I1014 10:34:23.369665 27011 net.cpp:399] layer_256_5_conv3 -> layer_256_5_conv3
I1014 10:34:23.372988 27011 net.cpp:141] Setting up layer_256_5_conv3
I1014 10:34:23.372997 27011 net.cpp:148] Top shape: 1 1024 14 14 (200704)
I1014 10:34:23.372998 27011 net.cpp:156] Memory required for data: 205721604
I1014 10:34:23.373002 27011 layer_factory.hpp:77] Creating layer layer_256_5_sum
I1014 10:34:23.373005 27011 net.cpp:91] Creating Layer layer_256_5_sum
I1014 10:34:23.373008 27011 net.cpp:425] layer_256_5_sum <- layer_256_5_conv3
I1014 10:34:23.373011 27011 net.cpp:425] layer_256_5_sum <- layer_256_4_sum_layer_256_4_sum_0_split_1
I1014 10:34:23.373014 27011 net.cpp:399] layer_256_5_sum -> layer_256_5_sum
I1014 10:34:23.373030 27011 net.cpp:141] Setting up layer_256_5_sum
I1014 10:34:23.373034 27011 net.cpp:148] Top shape: 1 1024 14 14 (200704)
I1014 10:34:23.373035 27011 net.cpp:156] Memory required for data: 206524420
I1014 10:34:23.373037 27011 layer_factory.hpp:77] Creating layer layer_256_5_sum_layer_256_5_sum_0_split
I1014 10:34:23.373040 27011 net.cpp:91] Creating Layer layer_256_5_sum_layer_256_5_sum_0_split
I1014 10:34:23.373044 27011 net.cpp:425] layer_256_5_sum_layer_256_5_sum_0_split <- layer_256_5_sum
I1014 10:34:23.373046 27011 net.cpp:399] layer_256_5_sum_layer_256_5_sum_0_split -> layer_256_5_sum_layer_256_5_sum_0_split_0
I1014 10:34:23.373049 27011 net.cpp:399] layer_256_5_sum_layer_256_5_sum_0_split -> layer_256_5_sum_layer_256_5_sum_0_split_1
I1014 10:34:23.373071 27011 net.cpp:141] Setting up layer_256_5_sum_layer_256_5_sum_0_split
I1014 10:34:23.373075 27011 net.cpp:148] Top shape: 1 1024 14 14 (200704)
I1014 10:34:23.373077 27011 net.cpp:148] Top shape: 1 1024 14 14 (200704)
I1014 10:34:23.373080 27011 net.cpp:156] Memory required for data: 208130052
I1014 10:34:23.373081 27011 layer_factory.hpp:77] Creating layer layer_256_6_bn1
I1014 10:34:23.373085 27011 net.cpp:91] Creating Layer layer_256_6_bn1
I1014 10:34:23.373087 27011 net.cpp:425] layer_256_6_bn1 <- layer_256_5_sum_layer_256_5_sum_0_split_0
I1014 10:34:23.373092 27011 net.cpp:399] layer_256_6_bn1 -> layer_256_6_bn1
I1014 10:34:23.373225 27011 net.cpp:141] Setting up layer_256_6_bn1
I1014 10:34:23.373230 27011 net.cpp:148] Top shape: 1 1024 14 14 (200704)
I1014 10:34:23.373232 27011 net.cpp:156] Memory required for data: 208932868
I1014 10:34:23.373236 27011 layer_factory.hpp:77] Creating layer layer_256_6_scale1
I1014 10:34:23.373241 27011 net.cpp:91] Creating Layer layer_256_6_scale1
I1014 10:34:23.373244 27011 net.cpp:425] layer_256_6_scale1 <- layer_256_6_bn1
I1014 10:34:23.373246 27011 net.cpp:386] layer_256_6_scale1 -> layer_256_6_bn1 (in-place)
I1014 10:34:23.373270 27011 layer_factory.hpp:77] Creating layer layer_256_6_scale1
I1014 10:34:23.373338 27011 net.cpp:141] Setting up layer_256_6_scale1
I1014 10:34:23.373342 27011 net.cpp:148] Top shape: 1 1024 14 14 (200704)
I1014 10:34:23.373344 27011 net.cpp:156] Memory required for data: 209735684
I1014 10:34:23.373347 27011 layer_factory.hpp:77] Creating layer layer_256_6_relu1
I1014 10:34:23.373353 27011 net.cpp:91] Creating Layer layer_256_6_relu1
I1014 10:34:23.373354 27011 net.cpp:425] layer_256_6_relu1 <- layer_256_6_bn1
I1014 10:34:23.373358 27011 net.cpp:386] layer_256_6_relu1 -> layer_256_6_bn1 (in-place)
I1014 10:34:23.373360 27011 net.cpp:141] Setting up layer_256_6_relu1
I1014 10:34:23.373363 27011 net.cpp:148] Top shape: 1 1024 14 14 (200704)
I1014 10:34:23.373365 27011 net.cpp:156] Memory required for data: 210538500
I1014 10:34:23.373368 27011 layer_factory.hpp:77] Creating layer layer_256_6_conv1
I1014 10:34:23.373373 27011 net.cpp:91] Creating Layer layer_256_6_conv1
I1014 10:34:23.373375 27011 net.cpp:425] layer_256_6_conv1 <- layer_256_6_bn1
I1014 10:34:23.373379 27011 net.cpp:399] layer_256_6_conv1 -> layer_256_6_conv1
I1014 10:34:23.376718 27011 net.cpp:141] Setting up layer_256_6_conv1
I1014 10:34:23.376724 27011 net.cpp:148] Top shape: 1 256 14 14 (50176)
I1014 10:34:23.376726 27011 net.cpp:156] Memory required for data: 210739204
I1014 10:34:23.376729 27011 layer_factory.hpp:77] Creating layer layer_256_6_bn2
I1014 10:34:23.376734 27011 net.cpp:91] Creating Layer layer_256_6_bn2
I1014 10:34:23.376736 27011 net.cpp:425] layer_256_6_bn2 <- layer_256_6_conv1
I1014 10:34:23.376739 27011 net.cpp:386] layer_256_6_bn2 -> layer_256_6_conv1 (in-place)
I1014 10:34:23.376852 27011 net.cpp:141] Setting up layer_256_6_bn2
I1014 10:34:23.376857 27011 net.cpp:148] Top shape: 1 256 14 14 (50176)
I1014 10:34:23.376858 27011 net.cpp:156] Memory required for data: 210939908
I1014 10:34:23.376863 27011 layer_factory.hpp:77] Creating layer layer_256_6_scale2
I1014 10:34:23.376868 27011 net.cpp:91] Creating Layer layer_256_6_scale2
I1014 10:34:23.376869 27011 net.cpp:425] layer_256_6_scale2 <- layer_256_6_conv1
I1014 10:34:23.376873 27011 net.cpp:386] layer_256_6_scale2 -> layer_256_6_conv1 (in-place)
I1014 10:34:23.376896 27011 layer_factory.hpp:77] Creating layer layer_256_6_scale2
I1014 10:34:23.376961 27011 net.cpp:141] Setting up layer_256_6_scale2
I1014 10:34:23.376965 27011 net.cpp:148] Top shape: 1 256 14 14 (50176)
I1014 10:34:23.376967 27011 net.cpp:156] Memory required for data: 211140612
I1014 10:34:23.376971 27011 layer_factory.hpp:77] Creating layer layer_256_6_relu2
I1014 10:34:23.376974 27011 net.cpp:91] Creating Layer layer_256_6_relu2
I1014 10:34:23.376976 27011 net.cpp:425] layer_256_6_relu2 <- layer_256_6_conv1
I1014 10:34:23.376979 27011 net.cpp:386] layer_256_6_relu2 -> layer_256_6_conv1 (in-place)
I1014 10:34:23.376983 27011 net.cpp:141] Setting up layer_256_6_relu2
I1014 10:34:23.376986 27011 net.cpp:148] Top shape: 1 256 14 14 (50176)
I1014 10:34:23.376987 27011 net.cpp:156] Memory required for data: 211341316
I1014 10:34:23.376989 27011 layer_factory.hpp:77] Creating layer layer_256_6_conv2
I1014 10:34:23.376996 27011 net.cpp:91] Creating Layer layer_256_6_conv2
I1014 10:34:23.376997 27011 net.cpp:425] layer_256_6_conv2 <- layer_256_6_conv1
I1014 10:34:23.377002 27011 net.cpp:399] layer_256_6_conv2 -> layer_256_6_conv2
I1014 10:34:23.384768 27011 net.cpp:141] Setting up layer_256_6_conv2
I1014 10:34:23.384789 27011 net.cpp:148] Top shape: 1 256 14 14 (50176)
I1014 10:34:23.384791 27011 net.cpp:156] Memory required for data: 211542020
I1014 10:34:23.384795 27011 layer_factory.hpp:77] Creating layer layer_256_6_bn3
I1014 10:34:23.384801 27011 net.cpp:91] Creating Layer layer_256_6_bn3
I1014 10:34:23.384804 27011 net.cpp:425] layer_256_6_bn3 <- layer_256_6_conv2
I1014 10:34:23.384809 27011 net.cpp:386] layer_256_6_bn3 -> layer_256_6_conv2 (in-place)
I1014 10:34:23.384932 27011 net.cpp:141] Setting up layer_256_6_bn3
I1014 10:34:23.384935 27011 net.cpp:148] Top shape: 1 256 14 14 (50176)
I1014 10:34:23.384938 27011 net.cpp:156] Memory required for data: 211742724
I1014 10:34:23.384941 27011 layer_factory.hpp:77] Creating layer layer_256_6_scale3
I1014 10:34:23.384948 27011 net.cpp:91] Creating Layer layer_256_6_scale3
I1014 10:34:23.384950 27011 net.cpp:425] layer_256_6_scale3 <- layer_256_6_conv2
I1014 10:34:23.384953 27011 net.cpp:386] layer_256_6_scale3 -> layer_256_6_conv2 (in-place)
I1014 10:34:23.384979 27011 layer_factory.hpp:77] Creating layer layer_256_6_scale3
I1014 10:34:23.385047 27011 net.cpp:141] Setting up layer_256_6_scale3
I1014 10:34:23.385051 27011 net.cpp:148] Top shape: 1 256 14 14 (50176)
I1014 10:34:23.385053 27011 net.cpp:156] Memory required for data: 211943428
I1014 10:34:23.385056 27011 layer_factory.hpp:77] Creating layer layer_256_6_relu3
I1014 10:34:23.385061 27011 net.cpp:91] Creating Layer layer_256_6_relu3
I1014 10:34:23.385062 27011 net.cpp:425] layer_256_6_relu3 <- layer_256_6_conv2
I1014 10:34:23.385066 27011 net.cpp:386] layer_256_6_relu3 -> layer_256_6_conv2 (in-place)
I1014 10:34:23.385069 27011 net.cpp:141] Setting up layer_256_6_relu3
I1014 10:34:23.385072 27011 net.cpp:148] Top shape: 1 256 14 14 (50176)
I1014 10:34:23.385074 27011 net.cpp:156] Memory required for data: 212144132
I1014 10:34:23.385076 27011 layer_factory.hpp:77] Creating layer layer_256_6_conv3
I1014 10:34:23.385082 27011 net.cpp:91] Creating Layer layer_256_6_conv3
I1014 10:34:23.385084 27011 net.cpp:425] layer_256_6_conv3 <- layer_256_6_conv2
I1014 10:34:23.385088 27011 net.cpp:399] layer_256_6_conv3 -> layer_256_6_conv3
I1014 10:34:23.388499 27011 net.cpp:141] Setting up layer_256_6_conv3
I1014 10:34:23.388506 27011 net.cpp:148] Top shape: 1 1024 14 14 (200704)
I1014 10:34:23.388509 27011 net.cpp:156] Memory required for data: 212946948
I1014 10:34:23.388511 27011 layer_factory.hpp:77] Creating layer layer_256_6_sum
I1014 10:34:23.388516 27011 net.cpp:91] Creating Layer layer_256_6_sum
I1014 10:34:23.388520 27011 net.cpp:425] layer_256_6_sum <- layer_256_6_conv3
I1014 10:34:23.388522 27011 net.cpp:425] layer_256_6_sum <- layer_256_5_sum_layer_256_5_sum_0_split_1
I1014 10:34:23.388525 27011 net.cpp:399] layer_256_6_sum -> layer_256_6_sum
I1014 10:34:23.388540 27011 net.cpp:141] Setting up layer_256_6_sum
I1014 10:34:23.388545 27011 net.cpp:148] Top shape: 1 1024 14 14 (200704)
I1014 10:34:23.388546 27011 net.cpp:156] Memory required for data: 213749764
I1014 10:34:23.388548 27011 layer_factory.hpp:77] Creating layer layer_512_1_bn1
I1014 10:34:23.388552 27011 net.cpp:91] Creating Layer layer_512_1_bn1
I1014 10:34:23.388555 27011 net.cpp:425] layer_512_1_bn1 <- layer_256_6_sum
I1014 10:34:23.388557 27011 net.cpp:399] layer_512_1_bn1 -> layer_512_1_bn1
I1014 10:34:23.388684 27011 net.cpp:141] Setting up layer_512_1_bn1
I1014 10:34:23.388689 27011 net.cpp:148] Top shape: 1 1024 14 14 (200704)
I1014 10:34:23.388690 27011 net.cpp:156] Memory required for data: 214552580
I1014 10:34:23.388695 27011 layer_factory.hpp:77] Creating layer layer_512_1_scale1
I1014 10:34:23.388700 27011 net.cpp:91] Creating Layer layer_512_1_scale1
I1014 10:34:23.388701 27011 net.cpp:425] layer_512_1_scale1 <- layer_512_1_bn1
I1014 10:34:23.388705 27011 net.cpp:386] layer_512_1_scale1 -> layer_512_1_bn1 (in-place)
I1014 10:34:23.388727 27011 layer_factory.hpp:77] Creating layer layer_512_1_scale1
I1014 10:34:23.388799 27011 net.cpp:141] Setting up layer_512_1_scale1
I1014 10:34:23.388804 27011 net.cpp:148] Top shape: 1 1024 14 14 (200704)
I1014 10:34:23.388813 27011 net.cpp:156] Memory required for data: 215355396
I1014 10:34:23.388815 27011 layer_factory.hpp:77] Creating layer layer_512_1_relu1
I1014 10:34:23.388820 27011 net.cpp:91] Creating Layer layer_512_1_relu1
I1014 10:34:23.388823 27011 net.cpp:425] layer_512_1_relu1 <- layer_512_1_bn1
I1014 10:34:23.388825 27011 net.cpp:386] layer_512_1_relu1 -> layer_512_1_bn1 (in-place)
I1014 10:34:23.388828 27011 net.cpp:141] Setting up layer_512_1_relu1
I1014 10:34:23.388831 27011 net.cpp:148] Top shape: 1 1024 14 14 (200704)
I1014 10:34:23.388833 27011 net.cpp:156] Memory required for data: 216158212
I1014 10:34:23.388835 27011 layer_factory.hpp:77] Creating layer layer_512_1_bn1_layer_512_1_relu1_0_split
I1014 10:34:23.388839 27011 net.cpp:91] Creating Layer layer_512_1_bn1_layer_512_1_relu1_0_split
I1014 10:34:23.388841 27011 net.cpp:425] layer_512_1_bn1_layer_512_1_relu1_0_split <- layer_512_1_bn1
I1014 10:34:23.388844 27011 net.cpp:399] layer_512_1_bn1_layer_512_1_relu1_0_split -> layer_512_1_bn1_layer_512_1_relu1_0_split_0
I1014 10:34:23.388847 27011 net.cpp:399] layer_512_1_bn1_layer_512_1_relu1_0_split -> layer_512_1_bn1_layer_512_1_relu1_0_split_1
I1014 10:34:23.388870 27011 net.cpp:141] Setting up layer_512_1_bn1_layer_512_1_relu1_0_split
I1014 10:34:23.388873 27011 net.cpp:148] Top shape: 1 1024 14 14 (200704)
I1014 10:34:23.388876 27011 net.cpp:148] Top shape: 1 1024 14 14 (200704)
I1014 10:34:23.388877 27011 net.cpp:156] Memory required for data: 217763844
I1014 10:34:23.388880 27011 layer_factory.hpp:77] Creating layer layer_512_1_conv1
I1014 10:34:23.388885 27011 net.cpp:91] Creating Layer layer_512_1_conv1
I1014 10:34:23.388888 27011 net.cpp:425] layer_512_1_conv1 <- layer_512_1_bn1_layer_512_1_relu1_0_split_0
I1014 10:34:23.388892 27011 net.cpp:399] layer_512_1_conv1 -> layer_512_1_conv1
I1014 10:34:23.395539 27011 net.cpp:141] Setting up layer_512_1_conv1
I1014 10:34:23.395545 27011 net.cpp:148] Top shape: 1 512 14 14 (100352)
I1014 10:34:23.395547 27011 net.cpp:156] Memory required for data: 218165252
I1014 10:34:23.395550 27011 layer_factory.hpp:77] Creating layer layer_512_1_bn2
I1014 10:34:23.395555 27011 net.cpp:91] Creating Layer layer_512_1_bn2
I1014 10:34:23.395557 27011 net.cpp:425] layer_512_1_bn2 <- layer_512_1_conv1
I1014 10:34:23.395561 27011 net.cpp:386] layer_512_1_bn2 -> layer_512_1_conv1 (in-place)
I1014 10:34:23.395679 27011 net.cpp:141] Setting up layer_512_1_bn2
I1014 10:34:23.395684 27011 net.cpp:148] Top shape: 1 512 14 14 (100352)
I1014 10:34:23.395684 27011 net.cpp:156] Memory required for data: 218566660
I1014 10:34:23.395689 27011 layer_factory.hpp:77] Creating layer layer_512_1_scale2
I1014 10:34:23.395692 27011 net.cpp:91] Creating Layer layer_512_1_scale2
I1014 10:34:23.395694 27011 net.cpp:425] layer_512_1_scale2 <- layer_512_1_conv1
I1014 10:34:23.395697 27011 net.cpp:386] layer_512_1_scale2 -> layer_512_1_conv1 (in-place)
I1014 10:34:23.395720 27011 layer_factory.hpp:77] Creating layer layer_512_1_scale2
I1014 10:34:23.395784 27011 net.cpp:141] Setting up layer_512_1_scale2
I1014 10:34:23.395788 27011 net.cpp:148] Top shape: 1 512 14 14 (100352)
I1014 10:34:23.395790 27011 net.cpp:156] Memory required for data: 218968068
I1014 10:34:23.395793 27011 layer_factory.hpp:77] Creating layer layer_512_1_relu2
I1014 10:34:23.395797 27011 net.cpp:91] Creating Layer layer_512_1_relu2
I1014 10:34:23.395798 27011 net.cpp:425] layer_512_1_relu2 <- layer_512_1_conv1
I1014 10:34:23.395802 27011 net.cpp:386] layer_512_1_relu2 -> layer_512_1_conv1 (in-place)
I1014 10:34:23.395805 27011 net.cpp:141] Setting up layer_512_1_relu2
I1014 10:34:23.395808 27011 net.cpp:148] Top shape: 1 512 14 14 (100352)
I1014 10:34:23.395810 27011 net.cpp:156] Memory required for data: 219369476
I1014 10:34:23.395812 27011 layer_factory.hpp:77] Creating layer layer_512_1_conv2
I1014 10:34:23.395817 27011 net.cpp:91] Creating Layer layer_512_1_conv2
I1014 10:34:23.395819 27011 net.cpp:425] layer_512_1_conv2 <- layer_512_1_conv1
I1014 10:34:23.395824 27011 net.cpp:399] layer_512_1_conv2 -> layer_512_1_conv2
I1014 10:34:23.423387 27011 net.cpp:141] Setting up layer_512_1_conv2
I1014 10:34:23.423398 27011 net.cpp:148] Top shape: 1 512 7 7 (25088)
I1014 10:34:23.423400 27011 net.cpp:156] Memory required for data: 219469828
I1014 10:34:23.423404 27011 layer_factory.hpp:77] Creating layer layer_512_1_bn3
I1014 10:34:23.423410 27011 net.cpp:91] Creating Layer layer_512_1_bn3
I1014 10:34:23.423413 27011 net.cpp:425] layer_512_1_bn3 <- layer_512_1_conv2
I1014 10:34:23.423418 27011 net.cpp:386] layer_512_1_bn3 -> layer_512_1_conv2 (in-place)
I1014 10:34:23.423543 27011 net.cpp:141] Setting up layer_512_1_bn3
I1014 10:34:23.423547 27011 net.cpp:148] Top shape: 1 512 7 7 (25088)
I1014 10:34:23.423549 27011 net.cpp:156] Memory required for data: 219570180
I1014 10:34:23.423571 27011 layer_factory.hpp:77] Creating layer layer_512_1_scale3
I1014 10:34:23.423576 27011 net.cpp:91] Creating Layer layer_512_1_scale3
I1014 10:34:23.423579 27011 net.cpp:425] layer_512_1_scale3 <- layer_512_1_conv2
I1014 10:34:23.423583 27011 net.cpp:386] layer_512_1_scale3 -> layer_512_1_conv2 (in-place)
I1014 10:34:23.423605 27011 layer_factory.hpp:77] Creating layer layer_512_1_scale3
I1014 10:34:23.423677 27011 net.cpp:141] Setting up layer_512_1_scale3
I1014 10:34:23.423681 27011 net.cpp:148] Top shape: 1 512 7 7 (25088)
I1014 10:34:23.423683 27011 net.cpp:156] Memory required for data: 219670532
I1014 10:34:23.423686 27011 layer_factory.hpp:77] Creating layer layer_512_1_relu3
I1014 10:34:23.423689 27011 net.cpp:91] Creating Layer layer_512_1_relu3
I1014 10:34:23.423691 27011 net.cpp:425] layer_512_1_relu3 <- layer_512_1_conv2
I1014 10:34:23.423696 27011 net.cpp:386] layer_512_1_relu3 -> layer_512_1_conv2 (in-place)
I1014 10:34:23.423698 27011 net.cpp:141] Setting up layer_512_1_relu3
I1014 10:34:23.423702 27011 net.cpp:148] Top shape: 1 512 7 7 (25088)
I1014 10:34:23.423703 27011 net.cpp:156] Memory required for data: 219770884
I1014 10:34:23.423705 27011 layer_factory.hpp:77] Creating layer layer_512_1_conv3
I1014 10:34:23.423712 27011 net.cpp:91] Creating Layer layer_512_1_conv3
I1014 10:34:23.423713 27011 net.cpp:425] layer_512_1_conv3 <- layer_512_1_conv2
I1014 10:34:23.423717 27011 net.cpp:399] layer_512_1_conv3 -> layer_512_1_conv3
I1014 10:34:23.436172 27011 net.cpp:141] Setting up layer_512_1_conv3
I1014 10:34:23.436180 27011 net.cpp:148] Top shape: 1 2048 7 7 (100352)
I1014 10:34:23.436182 27011 net.cpp:156] Memory required for data: 220172292
I1014 10:34:23.436185 27011 layer_factory.hpp:77] Creating layer layer_512_1_conv_expand
I1014 10:34:23.436192 27011 net.cpp:91] Creating Layer layer_512_1_conv_expand
I1014 10:34:23.436194 27011 net.cpp:425] layer_512_1_conv_expand <- layer_512_1_bn1_layer_512_1_relu1_0_split_1
I1014 10:34:23.436199 27011 net.cpp:399] layer_512_1_conv_expand -> layer_512_1_conv_expand
I1014 10:34:23.461951 27011 net.cpp:141] Setting up layer_512_1_conv_expand
I1014 10:34:23.461958 27011 net.cpp:148] Top shape: 1 2048 7 7 (100352)
I1014 10:34:23.461961 27011 net.cpp:156] Memory required for data: 220573700
I1014 10:34:23.461963 27011 layer_factory.hpp:77] Creating layer layer_512_1_sum
I1014 10:34:23.461968 27011 net.cpp:91] Creating Layer layer_512_1_sum
I1014 10:34:23.461971 27011 net.cpp:425] layer_512_1_sum <- layer_512_1_conv3
…
I1014 10:34:23.695988 27011 layer_factory.hpp:77] Creating layer layer_256_4_scale2
I1014 10:34:23.696080 27011 net.cpp:141] Setting up layer_256_4_scale2
I1014 10:34:23.696084 27011 net.cpp:148] Top shape: 10 256 14 14 (501760)
I1014 10:34:23.696085 27011 net.cpp:156] Memory required for data: 1966899360
I1014 10:34:23.696089 27011 layer_factory.hpp:77] Creating layer layer_256_4_relu2
I1014 10:34:23.696092 27011 net.cpp:91] Creating Layer layer_256_4_relu2
I1014 10:34:23.696094 27011 net.cpp:425] layer_256_4_relu2 <- layer_256_4_conv1
I1014 10:34:23.696097 27011 net.cpp:386] layer_256_4_relu2 -> layer_256_4_conv1 (in-place)
I1014 10:34:23.696101 27011 net.cpp:141] Setting up layer_256_4_relu2
I1014 10:34:23.696104 27011 net.cpp:148] Top shape: 10 256 14 14 (501760)
I1014 10:34:23.696105 27011 net.cpp:156] Memory required for data: 1968906400
I1014 10:34:23.696107 27011 layer_factory.hpp:77] Creating layer layer_256_4_conv2
I1014 10:34:23.696113 27011 net.cpp:91] Creating Layer layer_256_4_conv2
I1014 10:34:23.696115 27011 net.cpp:425] layer_256_4_conv2 <- layer_256_4_conv1
I1014 10:34:23.696120 27011 net.cpp:399] layer_256_4_conv2 -> layer_256_4_conv2
I1014 10:34:23.704133 27011 net.cpp:141] Setting up layer_256_4_conv2
I1014 10:34:23.704152 27011 net.cpp:148] Top shape: 10 256 14 14 (501760)
I1014 10:34:23.704156 27011 net.cpp:156] Memory required for data: 1970913440
I1014 10:34:23.704179 27011 layer_factory.hpp:77] Creating layer layer_256_4_bn3
I1014 10:34:23.704183 27011 net.cpp:91] Creating Layer layer_256_4_bn3
I1014 10:34:23.704186 27011 net.cpp:425] layer_256_4_bn3 <- layer_256_4_conv2
I1014 10:34:23.704190 27011 net.cpp:386] layer_256_4_bn3 -> layer_256_4_conv2 (in-place)
I1014 10:34:23.704319 27011 net.cpp:141] Setting up layer_256_4_bn3
I1014 10:34:23.704324 27011 net.cpp:148] Top shape: 10 256 14 14 (501760)
I1014 10:34:23.704325 27011 net.cpp:156] Memory required for data: 1972920480
I1014 10:34:23.704329 27011 layer_factory.hpp:77] Creating layer layer_256_4_scale3
I1014 10:34:23.704334 27011 net.cpp:91] Creating Layer layer_256_4_scale3
I1014 10:34:23.704335 27011 net.cpp:425] layer_256_4_scale3 <- layer_256_4_conv2
I1014 10:34:23.704339 27011 net.cpp:386] layer_256_4_scale3 -> layer_256_4_conv2 (in-place)
I1014 10:34:23.704362 27011 layer_factory.hpp:77] Creating layer layer_256_4_scale3
I1014 10:34:23.704443 27011 net.cpp:141] Setting up layer_256_4_scale3
I1014 10:34:23.704447 27011 net.cpp:148] Top shape: 10 256 14 14 (501760)
I1014 10:34:23.704463 27011 net.cpp:156] Memory required for data: 1974927520
I1014 10:34:23.704468 27011 layer_factory.hpp:77] Creating layer layer_256_4_relu3
I1014 10:34:23.704470 27011 net.cpp:91] Creating Layer layer_256_4_relu3
I1014 10:34:23.704473 27011 net.cpp:425] layer_256_4_relu3 <- layer_256_4_conv2
I1014 10:34:23.704476 27011 net.cpp:386] layer_256_4_relu3 -> layer_256_4_conv2 (in-place)
I1014 10:34:23.704493 27011 net.cpp:141] Setting up layer_256_4_relu3
I1014 10:34:23.704495 27011 net.cpp:148] Top shape: 10 256 14 14 (501760)
I1014 10:34:23.704497 27011 net.cpp:156] Memory required for data: 1976934560
I1014 10:34:23.704499 27011 layer_factory.hpp:77] Creating layer layer_256_4_conv3
I1014 10:34:23.704505 27011 net.cpp:91] Creating Layer layer_256_4_conv3
I1014 10:34:23.704507 27011 net.cpp:425] layer_256_4_conv3 <- layer_256_4_conv2
I1014 10:34:23.704510 27011 net.cpp:399] layer_256_4_conv3 -> layer_256_4_conv3
I1014 10:34:23.708252 27011 net.cpp:141] Setting up layer_256_4_conv3
I1014 10:34:23.708272 27011 net.cpp:148] Top shape: 10 1024 14 14 (2007040)
I1014 10:34:23.708274 27011 net.cpp:156] Memory required for data: 1984962720
I1014 10:34:23.708278 27011 layer_factory.hpp:77] Creating layer layer_256_4_sum
I1014 10:34:23.708282 27011 net.cpp:91] Creating Layer layer_256_4_sum
I1014 10:34:23.708284 27011 net.cpp:425] layer_256_4_sum <- layer_256_4_conv3
I1014 10:34:23.708287 27011 net.cpp:425] layer_256_4_sum <- layer_256_3_sum_layer_256_3_sum_0_split_1
I1014 10:34:23.708290 27011 net.cpp:399] layer_256_4_sum -> layer_256_4_sum
I1014 10:34:23.708305 27011 net.cpp:141] Setting up layer_256_4_sum
I1014 10:34:23.708309 27011 net.cpp:148] Top shape: 10 1024 14 14 (2007040)
I1014 10:34:23.708312 27011 net.cpp:156] Memory required for data: 1992990880
I1014 10:34:23.708313 27011 layer_factory.hpp:77] Creating layer layer_256_4_sum_layer_256_4_sum_0_split
I1014 10:34:23.708317 27011 net.cpp:91] Creating Layer layer_256_4_sum_layer_256_4_sum_0_split
I1014 10:34:23.708318 27011 net.cpp:425] layer_256_4_sum_layer_256_4_sum_0_split <- layer_256_4_sum
I1014 10:34:23.708322 27011 net.cpp:399] layer_256_4_sum_layer_256_4_sum_0_split -> layer_256_4_sum_layer_256_4_sum_0_split_0
I1014 10:34:23.708325 27011 net.cpp:399] layer_256_4_sum_layer_256_4_sum_0_split -> layer_256_4_sum_layer_256_4_sum_0_split_1
I1014 10:34:23.708346 27011 net.cpp:141] Setting up layer_256_4_sum_layer_256_4_sum_0_split
I1014 10:34:23.708350 27011 net.cpp:148] Top shape: 10 1024 14 14 (2007040)
I1014 10:34:23.708369 27011 net.cpp:148] Top shape: 10 1024 14 14 (2007040)
I1014 10:34:23.708370 27011 net.cpp:156] Memory required for data: 2009047200
I1014 10:34:23.708372 27011 layer_factory.hpp:77] Creating layer layer_256_5_bn1
I1014 10:34:23.708375 27011 net.cpp:91] Creating Layer layer_256_5_bn1
I1014 10:34:23.708391 27011 net.cpp:425] layer_256_5_bn1 <- layer_256_4_sum_layer_256_4_sum_0_split_0
I1014 10:34:23.708396 27011 net.cpp:399] layer_256_5_bn1 -> layer_256_5_bn1
I1014 10:34:23.708549 27011 net.cpp:141] Setting up layer_256_5_bn1
I1014 10:34:23.708552 27011 net.cpp:148] Top shape: 10 1024 14 14 (2007040)
I1014 10:34:23.708554 27011 net.cpp:156] Memory required for data: 2017075360
I1014 10:34:23.708559 27011 layer_factory.hpp:77] Creating layer layer_256_5_scale1
I1014 10:34:23.708564 27011 net.cpp:91] Creating Layer layer_256_5_scale1
I1014 10:34:23.708565 27011 net.cpp:425] layer_256_5_scale1 <- layer_256_5_bn1
I1014 10:34:23.708569 27011 net.cpp:386] layer_256_5_scale1 -> layer_256_5_bn1 (in-place)
I1014 10:34:23.708593 27011 layer_factory.hpp:77] Creating layer layer_256_5_scale1
I1014 10:34:23.708668 27011 net.cpp:141] Setting up layer_256_5_scale1
I1014 10:34:23.708673 27011 net.cpp:148] Top shape: 10 1024 14 14 (2007040)
I1014 10:34:23.708674 27011 net.cpp:156] Memory required for data: 2025103520
I1014 10:34:23.708678 27011 layer_factory.hpp:77] Creating layer layer_256_5_relu1
I1014 10:34:23.708681 27011 net.cpp:91] Creating Layer layer_256_5_relu1
I1014 10:34:23.708683 27011 net.cpp:425] layer_256_5_relu1 <- layer_256_5_bn1
I1014 10:34:23.708688 27011 net.cpp:386] layer_256_5_relu1 -> layer_256_5_bn1 (in-place)
I1014 10:34:23.708690 27011 net.cpp:141] Setting up layer_256_5_relu1
I1014 10:34:23.708693 27011 net.cpp:148] Top shape: 10 1024 14 14 (2007040)
I1014 10:34:23.708695 27011 net.cpp:156] Memory required for data: 2033131680
I1014 10:34:23.708698 27011 layer_factory.hpp:77] Creating layer layer_256_5_conv1
I1014 10:34:23.708703 27011 net.cpp:91] Creating Layer layer_256_5_conv1
I1014 10:34:23.708705 27011 net.cpp:425] layer_256_5_conv1 <- layer_256_5_bn1
I1014 10:34:23.708709 27011 net.cpp:399] layer_256_5_conv1 -> layer_256_5_conv1
I1014 10:34:23.712316 27011 net.cpp:141] Setting up layer_256_5_conv1
I1014 10:34:23.712322 27011 net.cpp:148] Top shape: 10 256 14 14 (501760)
I1014 10:34:23.712324 27011 net.cpp:156] Memory required for data: 2035138720
I1014 10:34:23.712327 27011 layer_factory.hpp:77] Creating layer layer_256_5_bn2
I1014 10:34:23.712347 27011 net.cpp:91] Creating Layer layer_256_5_bn2
I1014 10:34:23.712349 27011 net.cpp:425] layer_256_5_bn2 <- layer_256_5_conv1
I1014 10:34:23.712365 27011 net.cpp:386] layer_256_5_bn2 -> layer_256_5_conv1 (in-place)
I1014 10:34:23.712560 27011 net.cpp:141] Setting up layer_256_5_bn2
I1014 10:34:23.712564 27011 net.cpp:148] Top shape: 10 256 14 14 (501760)
I1014 10:34:23.712565 27011 net.cpp:156] Memory required for data: 2037145760
I1014 10:34:23.712569 27011 layer_factory.hpp:77] Creating layer layer_256_5_scale2
I1014 10:34:23.712575 27011 net.cpp:91] Creating Layer layer_256_5_scale2
I1014 10:34:23.712577 27011 net.cpp:425] layer_256_5_scale2 <- layer_256_5_conv1
I1014 10:34:23.712580 27011 net.cpp:386] layer_256_5_scale2 -> layer_256_5_conv1 (in-place)
I1014 10:34:23.712604 27011 layer_factory.hpp:77] Creating layer layer_256_5_scale2
I1014 10:34:23.712671 27011 net.cpp:141] Setting up layer_256_5_scale2
I1014 10:34:23.712674 27011 net.cpp:148] Top shape: 10 256 14 14 (501760)
I1014 10:34:23.712677 27011 net.cpp:156] Memory required for data: 2039152800
I1014 10:34:23.712679 27011 layer_factory.hpp:77] Creating layer layer_256_5_relu2
I1014 10:34:23.712683 27011 net.cpp:91] Creating Layer layer_256_5_relu2
I1014 10:34:23.712685 27011 net.cpp:425] layer_256_5_relu2 <- layer_256_5_conv1
I1014 10:34:23.712688 27011 net.cpp:386] layer_256_5_relu2 -> layer_256_5_conv1 (in-place)
I1014 10:34:23.712692 27011 net.cpp:141] Setting up layer_256_5_relu2
I1014 10:34:23.712694 27011 net.cpp:148] Top shape: 10 256 14 14 (501760)
I1014 10:34:23.712697 27011 net.cpp:156] Memory required for data: 2041159840
I1014 10:34:23.712698 27011 layer_factory.hpp:77] Creating layer layer_256_5_conv2
I1014 10:34:23.712703 27011 net.cpp:91] Creating Layer layer_256_5_conv2
I1014 10:34:23.712707 27011 net.cpp:425] layer_256_5_conv2 <- layer_256_5_conv1
I1014 10:34:23.712709 27011 net.cpp:399] layer_256_5_conv2 -> layer_256_5_conv2
I1014 10:34:23.720640 27011 net.cpp:141] Setting up layer_256_5_conv2
I1014 10:34:23.720649 27011 net.cpp:148] Top shape: 10 256 14 14 (501760)
I1014 10:34:23.720657 27011 net.cpp:156] Memory required for data: 2043166880
I1014 10:34:23.720660 27011 layer_factory.hpp:77] Creating layer layer_256_5_bn3
I1014 10:34:23.720666 27011 net.cpp:91] Creating Layer layer_256_5_bn3
I1014 10:34:23.720669 27011 net.cpp:425] layer_256_5_bn3 <- layer_256_5_conv2
I1014 10:34:23.720672 27011 net.cpp:386] layer_256_5_bn3 -> layer_256_5_conv2 (in-place)
I1014 10:34:23.720791 27011 net.cpp:141] Setting up layer_256_5_bn3
I1014 10:34:23.720795 27011 net.cpp:148] Top shape: 10 256 14 14 (501760)
I1014 10:34:23.720798 27011 net.cpp:156] Memory required for data: 2045173920
I1014 10:34:23.720801 27011 layer_factory.hpp:77] Creating layer layer_256_5_scale3
I1014 10:34:23.720805 27011 net.cpp:91] Creating Layer layer_256_5_scale3
I1014 10:34:23.720808 27011 net.cpp:425] layer_256_5_scale3 <- layer_256_5_conv2
I1014 10:34:23.720811 27011 net.cpp:386] layer_256_5_scale3 -> layer_256_5_conv2 (in-place)
I1014 10:34:23.720837 27011 layer_factory.hpp:77] Creating layer layer_256_5_scale3
I1014 10:34:23.720902 27011 net.cpp:141] Setting up layer_256_5_scale3
I1014 10:34:23.720906 27011 net.cpp:148] Top shape: 10 256 14 14 (501760)
I1014 10:34:23.720908 27011 net.cpp:156] Memory required for data: 2047180960
I1014 10:34:23.720911 27011 layer_factory.hpp:77] Creating layer layer_256_5_relu3
I1014 10:34:23.720916 27011 net.cpp:91] Creating Layer layer_256_5_relu3
I1014 10:34:23.720917 27011 net.cpp:425] layer_256_5_relu3 <- layer_256_5_conv2
I1014 10:34:23.720921 27011 net.cpp:386] layer_256_5_relu3 -> layer_256_5_conv2 (in-place)
I1014 10:34:23.720923 27011 net.cpp:141] Setting up layer_256_5_relu3
I1014 10:34:23.720927 27011 net.cpp:148] Top shape: 10 256 14 14 (501760)
I1014 10:34:23.720928 27011 net.cpp:156] Memory required for data: 2049188000
I1014 10:34:23.720930 27011 layer_factory.hpp:77] Creating layer layer_256_5_conv3
I1014 10:34:23.720937 27011 net.cpp:91] Creating Layer layer_256_5_conv3
I1014 10:34:23.720938 27011 net.cpp:425] layer_256_5_conv3 <- layer_256_5_conv2
I1014 10:34:23.720942 27011 net.cpp:399] layer_256_5_conv3 -> layer_256_5_conv3
I1014 10:34:23.724583 27011 net.cpp:141] Setting up layer_256_5_conv3
I1014 10:34:23.724589 27011 net.cpp:148] Top shape: 10 1024 14 14 (2007040)
I1014 10:34:23.724591 27011 net.cpp:156] Memory required for data: 2057216160
I1014 10:34:23.724594 27011 layer_factory.hpp:77] Creating layer layer_256_5_sum
I1014 10:34:23.724599 27011 net.cpp:91] Creating Layer layer_256_5_sum
I1014 10:34:23.724602 27011 net.cpp:425] layer_256_5_sum <- layer_256_5_conv3
I1014 10:34:23.724606 27011 net.cpp:425] layer_256_5_sum <- layer_256_4_sum_layer_256_4_sum_0_split_1
I1014 10:34:23.724608 27011 net.cpp:399] layer_256_5_sum -> layer_256_5_sum
I1014 10:34:23.724623 27011 net.cpp:141] Setting up layer_256_5_sum
I1014 10:34:23.724627 27011 net.cpp:148] Top shape: 10 1024 14 14 (2007040)
I1014 10:34:23.724628 27011 net.cpp:156] Memory required for data: 2065244320
I1014 10:34:23.724630 27011 layer_factory.hpp:77] Creating layer layer_256_5_sum_layer_256_5_sum_0_split
I1014 10:34:23.724633 27011 net.cpp:91] Creating Layer layer_256_5_sum_layer_256_5_sum_0_split
I1014 10:34:23.724635 27011 net.cpp:425] layer_256_5_sum_layer_256_5_sum_0_split <- layer_256_5_sum
I1014 10:34:23.724639 27011 net.cpp:399] layer_256_5_sum_layer_256_5_sum_0_split -> layer_256_5_sum_layer_256_5_sum_0_split_0
I1014 10:34:23.724643 27011 net.cpp:399] layer_256_5_sum_layer_256_5_sum_0_split -> layer_256_5_sum_layer_256_5_sum_0_split_1
I1014 10:34:23.724665 27011 net.cpp:141] Setting up layer_256_5_sum_layer_256_5_sum_0_split
I1014 10:34:23.724668 27011 net.cpp:148] Top shape: 10 1024 14 14 (2007040)
I1014 10:34:23.724670 27011 net.cpp:148] Top shape: 10 1024 14 14 (2007040)
I1014 10:34:23.724673 27011 net.cpp:156] Memory required for data: 2081300640
I1014 10:34:23.724674 27011 layer_factory.hpp:77] Creating layer layer_256_6_bn1
I1014 10:34:23.724679 27011 net.cpp:91] Creating Layer layer_256_6_bn1
I1014 10:34:23.724684 27011 net.cpp:425] layer_256_6_bn1 <- layer_256_5_sum_layer_256_5_sum_0_split_0
I1014 10:34:23.724692 27011 net.cpp:399] layer_256_6_bn1 -> layer_256_6_bn1
I1014 10:34:23.724827 27011 net.cpp:141] Setting up layer_256_6_bn1
I1014 10:34:23.724830 27011 net.cpp:148] Top shape: 10 1024 14 14 (2007040)
I1014 10:34:23.724833 27011 net.cpp:156] Memory required for data: 2089328800
I1014 10:34:23.724836 27011 layer_factory.hpp:77] Creating layer layer_256_6_scale1
I1014 10:34:23.724840 27011 net.cpp:91] Creating Layer layer_256_6_scale1
I1014 10:34:23.724843 27011 net.cpp:425] layer_256_6_scale1 <- layer_256_6_bn1
I1014 10:34:23.724846 27011 net.cpp:386] layer_256_6_scale1 -> layer_256_6_bn1 (in-place)
I1014 10:34:23.724872 27011 layer_factory.hpp:77] Creating layer layer_256_6_scale1
I1014 10:34:23.724944 27011 net.cpp:141] Setting up layer_256_6_scale1
I1014 10:34:23.724948 27011 net.cpp:148] Top shape: 10 1024 14 14 (2007040)
I1014 10:34:23.724951 27011 net.cpp:156] Memory required for data: 2097356960
I1014 10:34:23.724953 27011 layer_factory.hpp:77] Creating layer layer_256_6_relu1
I1014 10:34:23.724957 27011 net.cpp:91] Creating Layer layer_256_6_relu1
I1014 10:34:23.724959 27011 net.cpp:425] layer_256_6_relu1 <- layer_256_6_bn1
I1014 10:34:23.724963 27011 net.cpp:386] layer_256_6_relu1 -> layer_256_6_bn1 (in-place)
I1014 10:34:23.724967 27011 net.cpp:141] Setting up layer_256_6_relu1
I1014 10:34:23.724969 27011 net.cpp:148] Top shape: 10 1024 14 14 (2007040)
I1014 10:34:23.724972 27011 net.cpp:156] Memory required for data: 2105385120
I1014 10:34:23.724973 27011 layer_factory.hpp:77] Creating layer layer_256_6_conv1
I1014 10:34:23.724978 27011 net.cpp:91] Creating Layer layer_256_6_conv1
I1014 10:34:23.724982 27011 net.cpp:425] layer_256_6_conv1 <- layer_256_6_bn1
I1014 10:34:23.724984 27011 net.cpp:399] layer_256_6_conv1 -> layer_256_6_conv1
I1014 10:34:23.728631 27011 net.cpp:141] Setting up layer_256_6_conv1
I1014 10:34:23.728639 27011 net.cpp:148] Top shape: 10 256 14 14 (501760)
I1014 10:34:23.728641 27011 net.cpp:156] Memory required for data: 2107392160
I1014 10:34:23.728644 27011 layer_factory.hpp:77] Creating layer layer_256_6_bn2
I1014 10:34:23.728648 27011 net.cpp:91] Creating Layer layer_256_6_bn2
I1014 10:34:23.728652 27011 net.cpp:425] layer_256_6_bn2 <- layer_256_6_conv1
I1014 10:34:23.728655 27011 net.cpp:386] layer_256_6_bn2 -> layer_256_6_conv1 (in-place)
I1014 10:34:23.728775 27011 net.cpp:141] Setting up layer_256_6_bn2
I1014 10:34:23.728780 27011 net.cpp:148] Top shape: 10 256 14 14 (501760)
I1014 10:34:23.728781 27011 net.cpp:156] Memory required for data: 2109399200
I1014 10:34:23.728785 27011 layer_factory.hpp:77] Creating layer layer_256_6_scale2
I1014 10:34:23.728788 27011 net.cpp:91] Creating Layer layer_256_6_scale2
I1014 10:34:23.728791 27011 net.cpp:425] layer_256_6_scale2 <- layer_256_6_conv1
I1014 10:34:23.728795 27011 net.cpp:386] layer_256_6_scale2 -> layer_256_6_conv1 (in-place)
I1014 10:34:23.728821 27011 layer_factory.hpp:77] Creating layer layer_256_6_scale2
I1014 10:34:23.728890 27011 net.cpp:141] Setting up layer_256_6_scale2
I1014 10:34:23.728894 27011 net.cpp:148] Top shape: 10 256 14 14 (501760)
I1014 10:34:23.728896 27011 net.cpp:156] Memory required for data: 2111406240
I1014 10:34:23.728900 27011 layer_factory.hpp:77] Creating layer layer_256_6_relu2
I1014 10:34:23.728904 27011 net.cpp:91] Creating Layer layer_256_6_relu2
I1014 10:34:23.728905 27011 net.cpp:425] layer_256_6_relu2 <- layer_256_6_conv1
I1014 10:34:23.728909 27011 net.cpp:386] layer_256_6_relu2 -> layer_256_6_conv1 (in-place)
I1014 10:34:23.728912 27011 net.cpp:141] Setting up layer_256_6_relu2
I1014 10:34:23.728915 27011 net.cpp:148] Top shape: 10 256 14 14 (501760)
I1014 10:34:23.728917 27011 net.cpp:156] Memory required for data: 2113413280
I1014 10:34:23.728919 27011 layer_factory.hpp:77] Creating layer layer_256_6_conv2
I1014 10:34:23.728924 27011 net.cpp:91] Creating Layer layer_256_6_conv2
I1014 10:34:23.728926 27011 net.cpp:425] layer_256_6_conv2 <- layer_256_6_conv1
I1014 10:34:23.728932 27011 net.cpp:399] layer_256_6_conv2 -> layer_256_6_conv2
I1014 10:34:23.736763 27011 net.cpp:141] Setting up layer_256_6_conv2
I1014 10:34:23.736770 27011 net.cpp:148] Top shape: 10 256 14 14 (501760)
I1014 10:34:23.736773 27011 net.cpp:156] Memory required for data: 2115420320
I1014 10:34:23.736775 27011 layer_factory.hpp:77] Creating layer layer_256_6_bn3
I1014 10:34:23.736780 27011 net.cpp:91] Creating Layer layer_256_6_bn3
I1014 10:34:23.736783 27011 net.cpp:425] layer_256_6_bn3 <- layer_256_6_conv2
I1014 10:34:23.736786 27011 net.cpp:386] layer_256_6_bn3 -> layer_256_6_conv2 (in-place)
I1014 10:34:23.736909 27011 net.cpp:141] Setting up layer_256_6_bn3
I1014 10:34:23.736913 27011 net.cpp:148] Top shape: 10 256 14 14 (501760)
I1014 10:34:23.736915 27011 net.cpp:156] Memory required for data: 2117427360
I1014 10:34:23.736920 27011 layer_factory.hpp:77] Creating layer layer_256_6_scale3
I1014 10:34:23.736924 27011 net.cpp:91] Creating Layer layer_256_6_scale3
I1014 10:34:23.736927 27011 net.cpp:425] layer_256_6_scale3 <- layer_256_6_conv2
I1014 10:34:23.736929 27011 net.cpp:386] layer_256_6_scale3 -> layer_256_6_conv2 (in-place)
I1014 10:34:23.736955 27011 layer_factory.hpp:77] Creating layer layer_256_6_scale3
I1014 10:34:23.737021 27011 net.cpp:141] Setting up layer_256_6_scale3
I1014 10:34:23.737025 27011 net.cpp:148] Top shape: 10 256 14 14 (501760)
I1014 10:34:23.737027 27011 net.cpp:156] Memory required for data: 2119434400
I1014 10:34:23.737030 27011 layer_factory.hpp:77] Creating layer layer_256_6_relu3
I1014 10:34:23.737035 27011 net.cpp:91] Creating Layer layer_256_6_relu3
I1014 10:34:23.737036 27011 net.cpp:425] layer_256_6_relu3 <- layer_256_6_conv2
I1014 10:34:23.737040 27011 net.cpp:386] layer_256_6_relu3 -> layer_256_6_conv2 (in-place)
I1014 10:34:23.737043 27011 net.cpp:141] Setting up layer_256_6_relu3
I1014 10:34:23.737046 27011 net.cpp:148] Top shape: 10 256 14 14 (501760)
I1014 10:34:23.737048 27011 net.cpp:156] Memory required for data: 2121441440
I1014 10:34:23.737051 27011 layer_factory.hpp:77] Creating layer layer_256_6_conv3
I1014 10:34:23.737056 27011 net.cpp:91] Creating Layer layer_256_6_conv3
I1014 10:34:23.737059 27011 net.cpp:425] layer_256_6_conv3 <- layer_256_6_conv2
I1014 10:34:23.737063 27011 net.cpp:399] layer_256_6_conv3 -> layer_256_6_conv3
I1014 10:34:23.740602 27011 net.cpp:141] Setting up layer_256_6_conv3
I1014 10:34:23.740608 27011 net.cpp:148] Top shape: 10 1024 14 14 (2007040)
I1014 10:34:23.740610 27011 net.cpp:156] Memory required for data: 2129469600
I1014 10:34:23.740613 27011 layer_factory.hpp:77] Creating layer layer_256_6_sum
I1014 10:34:23.740618 27011 net.cpp:91] Creating Layer layer_256_6_sum
I1014 10:34:23.740620 27011 net.cpp:425] layer_256_6_sum <- layer_256_6_conv3
I1014 10:34:23.740623 27011 net.cpp:425] layer_256_6_sum <- layer_256_5_sum_layer_256_5_sum_0_split_1
I1014 10:34:23.740628 27011 net.cpp:399] layer_256_6_sum -> layer_256_6_sum
I1014 10:34:23.740643 27011 net.cpp:141] Setting up layer_256_6_sum
I1014 10:34:23.740645 27011 net.cpp:148] Top shape: 10 1024 14 14 (2007040)
I1014 10:34:23.740648 27011 net.cpp:156] Memory required for data: 2137497760
I1014 10:34:23.740649 27011 layer_factory.hpp:77] Creating layer layer_512_1_bn1
I1014 10:34:23.740654 27011 net.cpp:91] Creating Layer layer_512_1_bn1
I1014 10:34:23.740656 27011 net.cpp:425] layer_512_1_bn1 <- layer_256_6_sum
I1014 10:34:23.740659 27011 net.cpp:399] layer_512_1_bn1 -> layer_512_1_bn1
I1014 10:34:23.740795 27011 net.cpp:141] Setting up layer_512_1_bn1
I1014 10:34:23.740799 27011 net.cpp:148] Top shape: 10 1024 14 14 (2007040)
I1014 10:34:23.740800 27011 net.cpp:156] Memory required for data: 2145525920
I1014 10:34:23.740805 27011 layer_factory.hpp:77] Creating layer layer_512_1_scale1
I1014 10:34:23.740808 27011 net.cpp:91] Creating Layer layer_512_1_scale1
I1014 10:34:23.740811 27011 net.cpp:425] layer_512_1_scale1 <- layer_512_1_bn1
I1014 10:34:23.740814 27011 net.cpp:386] layer_512_1_scale1 -> layer_512_1_bn1 (in-place)
I1014 10:34:23.740841 27011 layer_factory.hpp:77] Creating layer layer_512_1_scale1
I1014 10:34:23.740916 27011 net.cpp:141] Setting up layer_512_1_scale1
I1014 10:34:23.740926 27011 net.cpp:148] Top shape: 10 1024 14 14 (2007040)
I1014 10:34:23.740928 27011 net.cpp:156] Memory required for data: 2153554080
I1014 10:34:23.740933 27011 layer_factory.hpp:77] Creating layer layer_512_1_relu1
I1014 10:34:23.740938 27011 net.cpp:91] Creating Layer layer_512_1_relu1
I1014 10:34:23.740941 27011 net.cpp:425] layer_512_1_relu1 <- layer_512_1_bn1
I1014 10:34:23.740943 27011 net.cpp:386] layer_512_1_relu1 -> layer_512_1_bn1 (in-place)
I1014 10:34:23.740947 27011 net.cpp:141] Setting up layer_512_1_relu1
I1014 10:34:23.740949 27011 net.cpp:148] Top shape: 10 1024 14 14 (2007040)
I1014 10:34:23.740952 27011 net.cpp:156] Memory required for data: 2161582240
I1014 10:34:23.740953 27011 layer_factory.hpp:77] Creating layer layer_512_1_bn1_layer_512_1_relu1_0_split
I1014 10:34:23.740957 27011 net.cpp:91] Creating Layer layer_512_1_bn1_layer_512_1_relu1_0_split
I1014 10:34:23.740958 27011 net.cpp:425] layer_512_1_bn1_layer_512_1_relu1_0_split <- layer_512_1_bn1
I1014 10:34:23.740962 27011 net.cpp:399] layer_512_1_bn1_layer_512_1_relu1_0_split -> layer_512_1_bn1_layer_512_1_relu1_0_split_0
I1014 10:34:23.740967 27011 net.cpp:399] layer_512_1_bn1_layer_512_1_relu1_0_split -> layer_512_1_bn1_layer_512_1_relu1_0_split_1
I1014 10:34:23.740988 27011 net.cpp:141] Setting up layer_512_1_bn1_layer_512_1_relu1_0_split
I1014 10:34:23.740993 27011 net.cpp:148] Top shape: 10 1024 14 14 (2007040)
I1014 10:34:23.740994 27011 net.cpp:148] Top shape: 10 1024 14 14 (2007040)
I1014 10:34:23.740996 27011 net.cpp:156] Memory required for data: 2177638560
I1014 10:34:23.740998 27011 layer_factory.hpp:77] Creating layer layer_512_1_conv1
I1014 10:34:23.741004 27011 net.cpp:91] Creating Layer layer_512_1_conv1
I1014 10:34:23.741006 27011 net.cpp:425] layer_512_1_conv1 <- layer_512_1_bn1_layer_512_1_relu1_0_split_0
I1014 10:34:23.741010 27011 net.cpp:399] layer_512_1_conv1 -> layer_512_1_conv1
I1014 10:34:23.747866 27011 net.cpp:141] Setting up layer_512_1_conv1
I1014 10:34:23.747874 27011 net.cpp:148] Top shape: 10 512 14 14 (1003520)
I1014 10:34:23.747876 27011 net.cpp:156] Memory required for data: 2181652640
I1014 10:34:23.747879 27011 layer_factory.hpp:77] Creating layer layer_512_1_bn2
I1014 10:34:23.747884 27011 net.cpp:91] Creating Layer layer_512_1_bn2
I1014 10:34:23.747901 27011 net.cpp:425] layer_512_1_bn2 <- layer_512_1_conv1
I1014 10:34:23.747905 27011 net.cpp:386] layer_512_1_bn2 -> layer_512_1_conv1 (in-place)
I1014 10:34:23.748060 27011 net.cpp:141] Setting up layer_512_1_bn2
I1014 10:34:23.748064 27011 net.cpp:148] Top shape: 10 512 14 14 (1003520)
I1014 10:34:23.748066 27011 net.cpp:156] Memory required for data: 2185666720
I1014 10:34:23.748070 27011 layer_factory.hpp:77] Creating layer layer_512_1_scale2
I1014 10:34:23.748075 27011 net.cpp:91] Creating Layer layer_512_1_scale2
I1014 10:34:23.748076 27011 net.cpp:425] layer_512_1_scale2 <- layer_512_1_conv1
I1014 10:34:23.748080 27011 net.cpp:386] layer_512_1_scale2 -> layer_512_1_conv1 (in-place)
I1014 10:34:23.748106 27011 layer_factory.hpp:77] Creating layer layer_512_1_scale2
I1014 10:34:23.748208 27011 net.cpp:141] Setting up layer_512_1_scale2
I1014 10:34:23.748212 27011 net.cpp:148] Top shape: 10 512 14 14 (1003520)
I1014 10:34:23.748214 27011 net.cpp:156] Memory required for data: 2189680800
I1014 10:34:23.748217 27011 layer_factory.hpp:77] Creating layer layer_512_1_relu2
I1014 10:34:23.748221 27011 net.cpp:91] Creating Layer layer_512_1_relu2
I1014 10:34:23.748224 27011 net.cpp:425] layer_512_1_relu2 <- layer_512_1_conv1
I1014 10:34:23.748226 27011 net.cpp:386] layer_512_1_relu2 -> layer_512_1_conv1 (in-place)
I1014 10:34:23.748229 27011 net.cpp:141] Setting up layer_512_1_relu2
I1014 10:34:23.748232 27011 net.cpp:148] Top shape: 10 512 14 14 (1003520)
I1014 10:34:23.748234 27011 net.cpp:156] Memory required for data: 2193694880
I1014 10:34:23.748236 27011 layer_factory.hpp:77] Creating layer layer_512_1_conv2
I1014 10:34:23.748255 27011 net.cpp:91] Creating Layer layer_512_1_conv2
I1014 10:34:23.748265 27011 net.cpp:425] layer_512_1_conv2 <- layer_512_1_conv1
I1014 10:34:23.748270 27011 net.cpp:399] layer_512_1_conv2 -> layer_512_1_conv2
I1014 10:34:23.778506 27011 net.cpp:141] Setting up layer_512_1_conv2
I1014 10:34:23.778535 27011 net.cpp:148] Top shape: 10 512 7 7 (250880)
I1014 10:34:23.778550 27011 net.cpp:156] Memory required for data: 2194698400
I1014 10:34:23.778554 27011 layer_factory.hpp:77] Creating layer layer_512_1_bn3
I1014 10:34:23.778579 27011 net.cpp:91] Creating Layer layer_512_1_bn3
I1014 10:34:23.778583 27011 net.cpp:425] layer_512_1_bn3 <- layer_512_1_conv2
I1014 10:34:23.778587 27011 net.cpp:386] layer_512_1_bn3 -> layer_512_1_conv2 (in-place)
I1014 10:34:23.778743 27011 net.cpp:141] Setting up layer_512_1_bn3
I1014 10:34:23.778746 27011 net.cpp:148] Top shape: 10 512 7 7 (250880)
I1014 10:34:23.778748 27011 net.cpp:156] Memory required for data: 2195701920
I1014 10:34:23.778772 27011 layer_factory.hpp:77] Creating layer layer_512_1_scale3
I1014 10:34:23.778777 27011 net.cpp:91] Creating Layer layer_512_1_scale3
I1014 10:34:23.778780 27011 net.cpp:425] layer_512_1_scale3 <- layer_512_1_conv2
I1014 10:34:23.778784 27011 net.cpp:386] layer_512_1_scale3 -> layer_512_1_conv2 (in-place)
I1014 10:34:23.778812 27011 layer_factory.hpp:77] Creating layer layer_512_1_scale3
I1014 10:34:23.778887 27011 net.cpp:141] Setting up layer_512_1_scale3
I1014 10:34:23.778890 27011 net.cpp:148] Top shape: 10 512 7 7 (250880)
I1014 10:34:23.778892 27011 net.cpp:156] Memory required for data: 2196705440
I1014 10:34:23.778895 27011 layer_factory.hpp:77] Creating layer layer_512_1_relu3
I1014 10:34:23.778900 27011 net.cpp:91] Creating Layer layer_512_1_relu3
I1014 10:34:23.778903 27011 net.cpp:425] layer_512_1_relu3 <- layer_512_1_conv2
I1014 10:34:23.778905 27011 net.cpp:386] layer_512_1_relu3 -> layer_512_1_conv2 (in-place)
I1014 10:34:23.778910 27011 net.cpp:141] Setting up layer_512_1_relu3
I1014 10:34:23.778913 27011 net.cpp:148] Top shape: 10 512 7 7 (250880)
I1014 10:34:23.778914 27011 net.cpp:156] Memory required for data: 2197708960
I1014 10:34:23.778918 27011 layer_factory.hpp:77] Creating layer layer_512_1_conv3
I1014 10:34:23.778923 27011 net.cpp:91] Creating Layer layer_512_1_conv3
I1014 10:34:23.778924 27011 net.cpp:425] layer_512_1_conv3 <- layer_512_1_conv2
I1014 10:34:23.778929 27011 net.cpp:399] layer_512_1_conv3 -> layer_512_1_conv3
I1014 10:34:23.792402 27011 net.cpp:141] Setting up layer_512_1_conv3
I1014 10:34:23.792409 27011 net.cpp:148] Top shape: 10 2048 7 7 (1003520)
I1014 10:34:23.792412 27011 net.cpp:156] Memory required for data: 2201723040
I1014 10:34:23.792415 27011 layer_factory.hpp:77] Creating layer layer_512_1_conv_expand
I1014 10:34:23.792421 27011 net.cpp:91] Creating Layer layer_512_1_conv_expand
I1014 10:34:23.792424 27011 net.cpp:425] layer_512_1_conv_expand <- layer_512_1_bn1_layer_512_1_relu1_0_split_1
I1014 10:34:23.792429 27011 net.cpp:399] layer_512_1_conv_expand -> layer_512_1_conv_expand
I1014 10:34:23.819389 27011 net.cpp:141] Setting up layer_512_1_conv_expand
I1014 10:34:23.819412 27011 net.cpp:148] Top shape: 10 2048 7 7 (1003520)
I1014 10:34:23.819416 27011 net.cpp:156] Memory required for data: 2205737120
I1014 10:34:23.819419 27011 layer_factory.hpp:77] Creating layer layer_512_1_sum
I1014 10:34:23.819425 27011 net.cpp:91] Creating Layer layer_512_1_sum
I1014 10:34:23.819428 27011 net.cpp:425] layer_512_1_sum <- layer_512_1_conv3
I1014 10:34:23.819432 27011 net.cpp:425] layer_512_1_sum <- layer_512_1_conv_expand
I1014 10:34:23.819435 27011 net.cpp:399] layer_512_1_sum -> layer_512_1_sum
I1014 10:34:23.819465 27011 net.cpp:141] Setting up layer_512_1_sum
I1014 10:34:23.819469 27011 net.cpp:148] Top shape: 10 2048 7 7 (1003520)
I1014 10:34:23.819471 27011 net.cpp:156] Memory required for data: 2209751200
I1014 10:34:23.819473 27011 layer_factory.hpp:77] Creating layer layer_512_1_sum_layer_512_1_sum_0_split
I1014 10:34:23.819478 27011 net.cpp:91] Creating Layer layer_512_1_sum_layer_512_1_sum_0_split
I1014 10:34:23.819483 27011 net.cpp:425] layer_512_1_sum_layer_512_1_sum_0_split <- layer_512_1_sum
I1014 10:34:23.819495 27011 net.cpp:399] layer_512_1_sum_layer_512_1_sum_0_split -> layer_512_1_sum_layer_512_1_sum_0_split_0
I1014 10:34:23.819499 27011 net.cpp:399] layer_512_1_sum_layer_512_1_sum_0_split -> layer_512_1_sum_layer_512_1_sum_0_split_1
I1014 10:34:23.819537 27011 net.cpp:141] Setting up layer_512_1_sum_layer_512_1_sum_0_split
I1014 10:34:23.819540 27011 net.cpp:148] Top shape: 10 2048 7 7 (1003520)
I1014 10:34:23.819543 27011 net.cpp:148] Top shape: 10 2048 7 7 (1003520)
I1014 10:34:23.819545 27011 net.cpp:156] Memory required for data: 2217779360
I1014 10:34:23.819547 27011 layer_factory.hpp:77] Creating layer layer_512_2_bn1
I1014 10:34:23.819551 27011 net.cpp:91] Creating Layer layer_512_2_bn1
I1014 10:34:23.819555 27011 net.cpp:425] layer_512_2_bn1 <- layer_512_1_sum_layer_512_1_sum_0_split_0
I1014 10:34:23.819557 27011 net.cpp:399] layer_512_2_bn1 -> layer_512_2_bn1
I1014 10:34:23.819728 27011 net.cpp:141] Setting up layer_512_2_bn1
I1014 10:34:23.819732 27011 net.cpp:148] Top shape: 10 2048 7 7 (1003520)
I1014 10:34:23.819735 27011 net.cpp:156] Memory required for data: 2221793440
I1014 10:34:23.819738 27011 layer_factory.hpp:77] Creating layer layer_512_2_scale1
I1014 10:34:23.819742 27011 net.cpp:91] Creating Layer layer_512_2_scale1
I1014 10:34:23.819746 27011 net.cpp:425] layer_512_2_scale1 <- layer_512_2_bn1
I1014 10:34:23.819749 27011 net.cpp:386] layer_512_2_scale1 -> layer_512_2_bn1 (in-place)
I1014 10:34:23.819793 27011 layer_factory.hpp:77] Creating layer layer_512_2_scale1
I1014 10:34:23.819872 27011 net.cpp:141] Setting up layer_512_2_scale1
I1014 10:34:23.819876 27011 net.cpp:148] Top shape: 10 2048 7 7 (1003520)
I1014 10:34:23.819878 27011 net.cpp:156] Memory required for data: 2225807520
I1014 10:34:23.819881 27011 layer_factory.hpp:77] Creating layer layer_512_2_relu1
I1014 10:34:23.819885 27011 net.cpp:91] Creating Layer layer_512_2_relu1
I1014 10:34:23.819887 27011 net.cpp:425] layer_512_2_relu1 <- layer_512_2_bn1
I1014 10:34:23.819891 27011 net.cpp:386] layer_512_2_relu1 -> layer_512_2_bn1 (in-place)
I1014 10:34:23.819895 27011 net.cpp:141] Setting up layer_512_2_relu1
I1014 10:34:23.819897 27011 net.cpp:148] Top shape: 10 2048 7 7 (1003520)
I1014 10:34:23.819900 27011 net.cpp:156] Memory required for data: 2229821600
I1014 10:34:23.819901 27011 layer_factory.hpp:77] Creating layer layer_512_2_conv1
I1014 10:34:23.819907 27011 net.cpp:91] Creating Layer layer_512_2_conv1
I1014 10:34:23.819911 27011 net.cpp:425] layer_512_2_conv1 <- layer_512_2_bn1
I1014 10:34:23.819913 27011 net.cpp:399] layer_512_2_conv1 -> layer_512_2_conv1
I1014 10:34:23.833250 27011 net.cpp:141] Setting up layer_512_2_conv1
I1014 10:34:23.833258 27011 net.cpp:148] Top shape: 10 512 7 7 (250880)
I1014 10:34:23.833261 27011 net.cpp:156] Memory required for data: 2230825120
I1014 10:34:23.833264 27011 layer_factory.hpp:77] Creating layer layer_512_2_bn2
I1014 10:34:23.833271 27011 net.cpp:91] Creating Layer layer_512_2_bn2
I1014 10:34:23.833273 27011 net.cpp:425] layer_512_2_bn2 <- layer_512_2_conv1
I1014 10:34:23.833277 27011 net.cpp:386] layer_512_2_bn2 -> layer_512_2_conv1 (in-place)
I1014 10:34:23.833415 27011 net.cpp:141] Setting up layer_512_2_bn2
I1014 10:34:23.833420 27011 net.cpp:148] Top shape: 10 512 7 7 (250880)
I1014 10:34:23.833421 27011 net.cpp:156] Memory required for data: 2231828640
I1014 10:34:23.833426 27011 layer_factory.hpp:77] Creating layer layer_512_2_scale2
I1014 10:34:23.833430 27011 net.cpp:91] Creating Layer layer_512_2_scale2
I1014 10:34:23.833432 27011 net.cpp:425] layer_512_2_scale2 <- layer_512_2_conv1
I1014 10:34:23.833436 27011 net.cpp:386] layer_512_2_scale2 -> layer_512_2_conv1 (in-place)
I1014 10:34:23.833464 27011 layer_factory.hpp:77] Creating layer layer_512_2_scale2
I1014 10:34:23.833541 27011 net.cpp:141] Setting up layer_512_2_scale2
I1014 10:34:23.833544 27011 net.cpp:148] Top shape: 10 512 7 7 (250880)
I1014 10:34:23.833546 27011 net.cpp:156] Memory required for data: 2232832160
I1014 10:34:23.833551 27011 layer_factory.hpp:77] Creating layer layer_512_2_relu2
I1014 10:34:23.833564 27011 net.cpp:91] Creating Layer layer_512_2_relu2
I1014 10:34:23.833566 27011 net.cpp:425] layer_512_2_relu2 <- layer_512_2_conv1
I1014 10:34:23.833570 27011 net.cpp:386] layer_512_2_relu2 -> layer_512_2_conv1 (in-place)
I1014 10:34:23.833573 27011 net.cpp:141] Setting up layer_512_2_relu2
I1014 10:34:23.833576 27011 net.cpp:148] Top shape: 10 512 7 7 (250880)
I1014 10:34:23.833577 27011 net.cpp:156] Memory required for data: 2233835680
I1014 10:34:23.833580 27011 layer_factory.hpp:77] Creating layer layer_512_2_conv2
I1014 10:34:23.833586 27011 net.cpp:91] Creating Layer layer_512_2_conv2
I1014 10:34:23.833590 27011 net.cpp:425] layer_512_2_conv2 <- layer_512_2_conv1
I1014 10:34:23.833592 27011 net.cpp:399] layer_512_2_conv2 -> layer_512_2_conv2
I1014 10:34:23.861659 27011 net.cpp:141] Setting up layer_512_2_conv2
I1014 10:34:23.861670 27011 net.cpp:148] Top shape: 10 512 7 7 (250880)
I1014 10:34:23.861672 27011 net.cpp:156] Memory required for data: 2234839200
I1014 10:34:23.861675 27011 layer_factory.hpp:77] Creating layer layer_512_2_bn3
I1014 10:34:23.861682 27011 net.cpp:91] Creating Layer layer_512_2_bn3
I1014 10:34:23.861686 27011 net.cpp:425] layer_512_2_bn3 <- layer_512_2_conv2
I1014 10:34:23.861690 27011 net.cpp:386] layer_512_2_bn3 -> layer_512_2_conv2 (in-place)
I1014 10:34:23.861826 27011 net.cpp:141] Setting up layer_512_2_bn3
I1014 10:34:23.861830 27011 net.cpp:148] Top shape: 10 512 7 7 (250880)
I1014 10:34:23.861832 27011 net.cpp:156] Memory required for data: 2235842720
I1014 10:34:23.861836 27011 layer_factory.hpp:77] Creating layer layer_512_2_scale3
I1014 10:34:23.861840 27011 net.cpp:91] Creating Layer layer_512_2_scale3
I1014 10:34:23.861842 27011 net.cpp:425] layer_512_2_scale3 <- layer_512_2_conv2
I1014 10:34:23.861846 27011 net.cpp:386] layer_512_2_scale3 -> layer_512_2_conv2 (in-place)
I1014 10:34:23.861874 27011 layer_factory.hpp:77] Creating layer layer_512_2_scale3
I1014 10:34:23.861948 27011 net.cpp:141] Setting up layer_512_2_scale3
I1014 10:34:23.861950 27011 net.cpp:148] Top shape: 10 512 7 7 (250880)
I1014 10:34:23.861953 27011 net.cpp:156] Memory required for data: 2236846240
I1014 10:34:23.861956 27011 layer_factory.hpp:77] Creating layer layer_512_2_relu3
I1014 10:34:23.861959 27011 net.cpp:91] Creating Layer layer_512_2_relu3
I1014 10:34:23.861961 27011 net.cpp:425] layer_512_2_relu3 <- layer_512_2_conv2
I1014 10:34:23.861964 27011 net.cpp:386] layer_512_2_relu3 -> layer_512_2_conv2 (in-place)
I1014 10:34:23.861968 27011 net.cpp:141] Setting up layer_512_2_relu3
I1014 10:34:23.861970 27011 net.cpp:148] Top shape: 10 512 7 7 (250880)
I1014 10:34:23.861973 27011 net.cpp:156] Memory required for data: 2237849760
I1014 10:34:23.861974 27011 layer_factory.hpp:77] Creating layer layer_512_2_conv3
I1014 10:34:23.861980 27011 net.cpp:91] Creating Layer layer_512_2_conv3
I1014 10:34:23.861982 27011 net.cpp:425] layer_512_2_conv3 <- layer_512_2_conv2
I1014 10:34:23.861986 27011 net.cpp:399] layer_512_2_conv3 -> layer_512_2_conv3
I1014 10:34:23.874438 27011 net.cpp:141] Setting up layer_512_2_conv3
I1014 10:34:23.874444 27011 net.cpp:148] Top shape: 10 2048 7 7 (1003520)
I1014 10:34:23.874446 27011 net.cpp:156] Memory required for data: 2241863840
I1014 10:34:23.874449 27011 layer_factory.hpp:77] Creating layer layer_512_2_sum
I1014 10:34:23.874454 27011 net.cpp:91] Creating Layer layer_512_2_sum
I1014 10:34:23.874456 27011 net.cpp:425] layer_512_2_sum <- layer_512_2_conv3
I1014 10:34:23.874459 27011 net.cpp:425] layer_512_2_sum <- layer_512_1_sum_layer_512_1_sum_0_split_1
I1014 10:34:23.874464 27011 net.cpp:399] layer_512_2_sum -> layer_512_2_sum
I1014 10:34:23.874480 27011 net.cpp:141] Setting up layer_512_2_sum
I1014 10:34:23.874482 27011 net.cpp:148] Top shape: 10 2048 7 7 (1003520)
I1014 10:34:23.874485 27011 net.cpp:156] Memory required for data: 2245877920
I1014 10:34:23.874486 27011 layer_factory.hpp:77] Creating layer layer_512_2_sum_layer_512_2_sum_0_split
I1014 10:34:23.874491 27011 net.cpp:91] Creating Layer layer_512_2_sum_layer_512_2_sum_0_split
I1014 10:34:23.874505 27011 net.cpp:425] layer_512_2_sum_layer_512_2_sum_0_split <- layer_512_2_sum
I1014 10:34:23.874507 27011 net.cpp:399] layer_512_2_sum_layer_512_2_sum_0_split -> layer_512_2_sum_layer_512_2_sum_0_split_0
I1014 10:34:23.874511 27011 net.cpp:399] layer_512_2_sum_layer_512_2_sum_0_split -> layer_512_2_sum_layer_512_2_sum_0_split_1
I1014 10:34:23.874534 27011 net.cpp:141] Setting up layer_512_2_sum_layer_512_2_sum_0_split
I1014 10:34:23.874538 27011 net.cpp:148] Top shape: 10 2048 7 7 (1003520)
I1014 10:34:23.874541 27011 net.cpp:148] Top shape: 10 2048 7 7 (1003520)
I1014 10:34:23.874542 27011 net.cpp:156] Memory required for data: 2253906080
I1014 10:34:23.874544 27011 layer_factory.hpp:77] Creating layer layer_512_3_bn1
I1014 10:34:23.874548 27011 net.cpp:91] Creating Layer layer_512_3_bn1
I1014 10:34:23.874552 27011 net.cpp:425] layer_512_3_bn1 <- layer_512_2_sum_layer_512_2_sum_0_split_0
I1014 10:34:23.874554 27011 net.cpp:399] layer_512_3_bn1 -> layer_512_3_bn1
I1014 10:34:23.874689 27011 net.cpp:141] Setting up layer_512_3_bn1
I1014 10:34:23.874692 27011 net.cpp:148] Top shape: 10 2048 7 7 (1003520)
I1014 10:34:23.874694 27011 net.cpp:156] Memory required for data: 2257920160
I1014 10:34:23.874698 27011 layer_factory.hpp:77] Creating layer layer_512_3_scale1
I1014 10:34:23.874702 27011 net.cpp:91] Creating Layer layer_512_3_scale1
I1014 10:34:23.874706 27011 net.cpp:425] layer_512_3_scale1 <- layer_512_3_bn1
I1014 10:34:23.874708 27011 net.cpp:386] layer_512_3_scale1 -> layer_512_3_bn1 (in-place)
I1014 10:34:23.874735 27011 layer_factory.hpp:77] Creating layer layer_512_3_scale1
I1014 10:34:23.874811 27011 net.cpp:141] Setting up layer_512_3_scale1
I1014 10:34:23.874814 27011 net.cpp:148] Top shape: 10 2048 7 7 (1003520)
I1014 10:34:23.874816 27011 net.cpp:156] Memory required for data: 2261934240
I1014 10:34:23.874820 27011 layer_factory.hpp:77] Creating layer layer_512_3_relu1
I1014 10:34:23.874824 27011 net.cpp:91] Creating Layer layer_512_3_relu1
I1014 10:34:23.874825 27011 net.cpp:425] layer_512_3_relu1 <- layer_512_3_bn1
I1014 10:34:23.874830 27011 net.cpp:386] layer_512_3_relu1 -> layer_512_3_bn1 (in-place)
I1014 10:34:23.874832 27011 net.cpp:141] Setting up layer_512_3_relu1
I1014 10:34:23.874835 27011 net.cpp:148] Top shape: 10 2048 7 7 (1003520)
I1014 10:34:23.874837 27011 net.cpp:156] Memory required for data: 2265948320
I1014 10:34:23.874838 27011 layer_factory.hpp:77] Creating layer layer_512_3_conv1
I1014 10:34:23.874845 27011 net.cpp:91] Creating Layer layer_512_3_conv1
I1014 10:34:23.874846 27011 net.cpp:425] layer_512_3_conv1 <- layer_512_3_bn1
I1014 10:34:23.874850 27011 net.cpp:399] layer_512_3_conv1 -> layer_512_3_conv1
I1014 10:34:23.887403 27011 net.cpp:141] Setting up layer_512_3_conv1
I1014 10:34:23.887410 27011 net.cpp:148] Top shape: 10 512 7 7 (250880)
I1014 10:34:23.887413 27011 net.cpp:156] Memory required for data: 2266951840
I1014 10:34:23.887415 27011 layer_factory.hpp:77] Creating layer layer_512_3_bn2
I1014 10:34:23.887420 27011 net.cpp:91] Creating Layer layer_512_3_bn2
I1014 10:34:23.887423 27011 net.cpp:425] layer_512_3_bn2 <- layer_512_3_conv1
I1014 10:34:23.887425 27011 net.cpp:386] layer_512_3_bn2 -> layer_512_3_conv1 (in-place)
I1014 10:34:23.887553 27011 net.cpp:141] Setting up layer_512_3_bn2
I1014 10:34:23.887557 27011 net.cpp:148] Top shape: 10 512 7 7 (250880)
I1014 10:34:23.887559 27011 net.cpp:156] Memory required for data: 2267955360
I1014 10:34:23.887563 27011 layer_factory.hpp:77] Creating layer layer_512_3_scale2
I1014 10:34:23.887568 27011 net.cpp:91] Creating Layer layer_512_3_scale2
I1014 10:34:23.887570 27011 net.cpp:425] layer_512_3_scale2 <- layer_512_3_conv1
I1014 10:34:23.887573 27011 net.cpp:386] layer_512_3_scale2 -> layer_512_3_conv1 (in-place)
I1014 10:34:23.887599 27011 layer_factory.hpp:77] Creating layer layer_512_3_scale2
I1014 10:34:23.887672 27011 net.cpp:141] Setting up layer_512_3_scale2
I1014 10:34:23.887676 27011 net.cpp:148] Top shape: 10 512 7 7 (250880)
I1014 10:34:23.887681 27011 net.cpp:156] Memory required for data: 2268958880
I1014 10:34:23.887691 27011 layer_factory.hpp:77] Creating layer layer_512_3_relu2
I1014 10:34:23.887696 27011 net.cpp:91] Creating Layer layer_512_3_relu2
I1014 10:34:23.887697 27011 net.cpp:425] layer_512_3_relu2 <- layer_512_3_conv1
I1014 10:34:23.887701 27011 net.cpp:386] layer_512_3_relu2 -> layer_512_3_conv1 (in-place)
I1014 10:34:23.887703 27011 net.cpp:141] Setting up layer_512_3_relu2
I1014 10:34:23.887706 27011 net.cpp:148] Top shape: 10 512 7 7 (250880)
I1014 10:34:23.887708 27011 net.cpp:156] Memory required for data: 2269962400
I1014 10:34:23.887711 27011 layer_factory.hpp:77] Creating layer layer_512_3_conv2
I1014 10:34:23.887715 27011 net.cpp:91] Creating Layer layer_512_3_conv2
I1014 10:34:23.887718 27011 net.cpp:425] layer_512_3_conv2 <- layer_512_3_conv1
I1014 10:34:23.887722 27011 net.cpp:399] layer_512_3_conv2 -> layer_512_3_conv2
I1014 10:34:23.915587 27011 net.cpp:141] Setting up layer_512_3_conv2
I1014 10:34:23.915601 27011 net.cpp:148] Top shape: 10 512 7 7 (250880)
I1014 10:34:23.915602 27011 net.cpp:156] Memory required for data: 2270965920
I1014 10:34:23.915606 27011 layer_factory.hpp:77] Creating layer layer_512_3_bn3
I1014 10:34:23.915613 27011 net.cpp:91] Creating Layer layer_512_3_bn3
I1014 10:34:23.915616 27011 net.cpp:425] layer_512_3_bn3 <- layer_512_3_conv2
I1014 10:34:23.915621 27011 net.cpp:386] layer_512_3_bn3 -> layer_512_3_conv2 (in-place)
I1014 10:34:23.915761 27011 net.cpp:141] Setting up layer_512_3_bn3
I1014 10:34:23.915766 27011 net.cpp:148] Top shape: 10 512 7 7 (250880)
I1014 10:34:23.915767 27011 net.cpp:156] Memory required for data: 2271969440
I1014 10:34:23.915771 27011 layer_factory.hpp:77] Creating layer layer_512_3_scale3
I1014 10:34:23.915776 27011 net.cpp:91] Creating Layer layer_512_3_scale3
I1014 10:34:23.915779 27011 net.cpp:425] layer_512_3_scale3 <- layer_512_3_conv2
I1014 10:34:23.915782 27011 net.cpp:386] layer_512_3_scale3 -> layer_512_3_conv2 (in-place)
I1014 10:34:23.915810 27011 layer_factory.hpp:77] Creating layer layer_512_3_scale3
I1014 10:34:23.915884 27011 net.cpp:141] Setting up layer_512_3_scale3
I1014 10:34:23.915886 27011 net.cpp:148] Top shape: 10 512 7 7 (250880)
I1014 10:34:23.915889 27011 net.cpp:156] Memory required for data: 2272972960
I1014 10:34:23.915892 27011 layer_factory.hpp:77] Creating layer layer_512_3_relu3
I1014 10:34:23.915896 27011 net.cpp:91] Creating Layer layer_512_3_relu3
I1014 10:34:23.915899 27011 net.cpp:425] layer_512_3_relu3 <- layer_512_3_conv2
I1014 10:34:23.915901 27011 net.cpp:386] layer_512_3_relu3 -> layer_512_3_conv2 (in-place)
I1014 10:34:23.915904 27011 net.cpp:141] Setting up layer_512_3_relu3
I1014 10:34:23.915907 27011 net.cpp:148] Top shape: 10 512 7 7 (250880)
I1014 10:34:23.915910 27011 net.cpp:156] Memory required for data: 2273976480
I1014 10:34:23.915911 27011 layer_factory.hpp:77] Creating layer layer_512_3_conv3
I1014 10:34:23.915916 27011 net.cpp:91] Creating Layer layer_512_3_conv3
I1014 10:34:23.915920 27011 net.cpp:425] layer_512_3_conv3 <- layer_512_3_conv2
I1014 10:34:23.915923 27011 net.cpp:399] layer_512_3_conv3 -> layer_512_3_conv3
I1014 10:34:23.928524 27011 net.cpp:141] Setting up layer_512_3_conv3
I1014 10:34:23.928532 27011 net.cpp:148] Top shape: 10 2048 7 7 (1003520)
I1014 10:34:23.928534 27011 net.cpp:156] Memory required for data: 2277990560
I1014 10:34:23.928537 27011 layer_factory.hpp:77] Creating layer layer_512_3_sum
I1014 10:34:23.928542 27011 net.cpp:91] Creating Layer layer_512_3_sum
I1014 10:34:23.928544 27011 net.cpp:425] layer_512_3_sum <- layer_512_3_conv3
I1014 10:34:23.928547 27011 net.cpp:425] layer_512_3_sum <- layer_512_2_sum_layer_512_2_sum_0_split_1
I1014 10:34:23.928550 27011 net.cpp:399] layer_512_3_sum -> layer_512_3_sum
I1014 10:34:23.928565 27011 net.cpp:141] Setting up layer_512_3_sum
I1014 10:34:23.928568 27011 net.cpp:148] Top shape: 10 2048 7 7 (1003520)
I1014 10:34:23.928570 27011 net.cpp:156] Memory required for data: 2282004640
I1014 10:34:23.928572 27011 layer_factory.hpp:77] Creating layer last_bn
I1014 10:34:23.928578 27011 net.cpp:91] Creating Layer last_bn
I1014 10:34:23.928591 27011 net.cpp:425] last_bn <- layer_512_3_sum
I1014 10:34:23.928596 27011 net.cpp:386] last_bn -> layer_512_3_sum (in-place)
I1014 10:34:23.928724 27011 net.cpp:141] Setting up last_bn
I1014 10:34:23.928727 27011 net.cpp:148] Top shape: 10 2048 7 7 (1003520)
I1014 10:34:23.928730 27011 net.cpp:156] Memory required for data: 2286018720
I1014 10:34:23.928733 27011 layer_factory.hpp:77] Creating layer last_scale
I1014 10:34:23.928738 27011 net.cpp:91] Creating Layer last_scale
I1014 10:34:23.928740 27011 net.cpp:425] last_scale <- layer_512_3_sum
I1014 10:34:23.928743 27011 net.cpp:386] last_scale -> layer_512_3_sum (in-place)
I1014 10:34:23.928771 27011 layer_factory.hpp:77] Creating layer last_scale
I1014 10:34:23.928845 27011 net.cpp:141] Setting up last_scale
I1014 10:34:23.928849 27011 net.cpp:148] Top shape: 10 2048 7 7 (1003520)
I1014 10:34:23.928851 27011 net.cpp:156] Memory required for data: 2290032800
I1014 10:34:23.928854 27011 layer_factory.hpp:77] Creating layer last_relu
I1014 10:34:23.928858 27011 net.cpp:91] Creating Layer last_relu
I1014 10:34:23.928860 27011 net.cpp:425] last_relu <- layer_512_3_sum
I1014 10:34:23.928864 27011 net.cpp:386] last_relu -> layer_512_3_sum (in-place)
I1014 10:34:23.928867 27011 net.cpp:141] Setting up last_relu
I1014 10:34:23.928869 27011 net.cpp:148] Top shape: 10 2048 7 7 (1003520)
I1014 10:34:23.928871 27011 net.cpp:156] Memory required for data: 2294046880
I1014 10:34:23.928874 27011 layer_factory.hpp:77] Creating layer global_pool
I1014 10:34:23.928877 27011 net.cpp:91] Creating Layer global_pool
I1014 10:34:23.928879 27011 net.cpp:425] global_pool <- layer_512_3_sum
I1014 10:34:23.928884 27011 net.cpp:399] global_pool -> global_pool
I1014 10:34:23.928897 27011 net.cpp:141] Setting up global_pool
I1014 10:34:23.928901 27011 net.cpp:148] Top shape: 10 2048 1 1 (20480)
I1014 10:34:23.928902 27011 net.cpp:156] Memory required for data: 2294128800
I1014 10:34:23.928905 27011 layer_factory.hpp:77] Creating layer score
I1014 10:34:23.928910 27011 net.cpp:91] Creating Layer score
I1014 10:34:23.928912 27011 net.cpp:425] score <- global_pool
I1014 10:34:23.928915 27011 net.cpp:399] score -> score
I1014 10:34:23.931236 27011 net.cpp:141] Setting up score
I1014 10:34:23.931246 27011 net.cpp:148] Top shape: 10 1000 (10000)
I1014 10:34:23.931247 27011 net.cpp:156] Memory required for data: 2294168800
I1014 10:34:23.931252 27011 layer_factory.hpp:77] Creating layer score_score_0_split
I1014 10:34:23.931257 27011 net.cpp:91] Creating Layer score_score_0_split
I1014 10:34:23.931259 27011 net.cpp:425] score_score_0_split <- score
I1014 10:34:23.931263 27011 net.cpp:399] score_score_0_split -> score_score_0_split_0
I1014 10:34:23.931267 27011 net.cpp:399] score_score_0_split -> score_score_0_split_1
I1014 10:34:23.931272 27011 net.cpp:399] score_score_0_split -> score_score_0_split_2
I1014 10:34:23.931305 27011 net.cpp:141] Setting up score_score_0_split
I1014 10:34:23.931309 27011 net.cpp:148] Top shape: 10 1000 (10000)
I1014 10:34:23.931311 27011 net.cpp:148] Top shape: 10 1000 (10000)
I1014 10:34:23.931314 27011 net.cpp:148] Top shape: 10 1000 (10000)
I1014 10:34:23.931315 27011 net.cpp:156] Memory required for data: 2294288800
I1014 10:34:23.931318 27011 layer_factory.hpp:77] Creating layer loss
I1014 10:34:23.931321 27011 net.cpp:91] Creating Layer loss
I1014 10:34:23.931324 27011 net.cpp:425] loss <- score_score_0_split_0
I1014 10:34:23.931326 27011 net.cpp:425] loss <- label_data_1_split_0
I1014 10:34:23.931329 27011 net.cpp:399] loss -> loss
…
